Model(
  (SWconv1): Sequential(
    (0): SWConv2d(3, 16, kernel_size=(3, 3), stride=(2, 2), padding=(1, 1), bias=False)
    (1): SWBatchNorm2d(
      16, eps=1e-05, momentum=0.1, affine=True, track_running_stats=True
      (bn): ModuleList(
        (0): BatchNorm2d(1, eps=1e-05, momentum=0.1, affine=True, track_running_stats=True)
        (1): BatchNorm2d(1, eps=1e-05, momentum=0.1, affine=True, track_running_stats=True)
        (2): BatchNorm2d(1, eps=1e-05, momentum=0.1, affine=True, track_running_stats=True)
        (3): BatchNorm2d(1, eps=1e-05, momentum=0.1, affine=True, track_running_stats=True)
        (4): BatchNorm2d(1, eps=1e-05, momentum=0.1, affine=True, track_running_stats=True)
        (5): BatchNorm2d(2, eps=1e-05, momentum=0.1, affine=True, track_running_stats=True)
        (6): BatchNorm2d(2, eps=1e-05, momentum=0.1, affine=True, track_running_stats=True)
        (7): BatchNorm2d(2, eps=1e-05, momentum=0.1, affine=True, track_running_stats=True)
        (8): BatchNorm2d(2, eps=1e-05, momentum=0.1, affine=True, track_running_stats=True)
        (9): BatchNorm2d(2, eps=1e-05, momentum=0.1, affine=True, track_running_stats=True)
        (10): BatchNorm2d(4, eps=1e-05, momentum=0.1, affine=True, track_running_stats=True)
        (11): BatchNorm2d(4, eps=1e-05, momentum=0.1, affine=True, track_running_stats=True)
        (12): BatchNorm2d(4, eps=1e-05, momentum=0.1, affine=True, track_running_stats=True)
        (13): BatchNorm2d(4, eps=1e-05, momentum=0.1, affine=True, track_running_stats=True)
        (14): BatchNorm2d(4, eps=1e-05, momentum=0.1, affine=True, track_running_stats=True)
        (15): BatchNorm2d(8, eps=1e-05, momentum=0.1, affine=True, track_running_stats=True)
        (16): BatchNorm2d(8, eps=1e-05, momentum=0.1, affine=True, track_running_stats=True)
        (17): BatchNorm2d(8, eps=1e-05, momentum=0.1, affine=True, track_running_stats=True)
        (18): BatchNorm2d(8, eps=1e-05, momentum=0.1, affine=True, track_running_stats=True)
        (19): BatchNorm2d(8, eps=1e-05, momentum=0.1, affine=True, track_running_stats=True)
        (20): BatchNorm2d(16, eps=1e-05, momentum=0.1, affine=True, track_running_stats=True)
        (21): BatchNorm2d(16, eps=1e-05, momentum=0.1, affine=True, track_running_stats=True)
        (22): BatchNorm2d(16, eps=1e-05, momentum=0.1, affine=True, track_running_stats=True)
        (23): BatchNorm2d(16, eps=1e-05, momentum=0.1, affine=True, track_running_stats=True)
        (24): BatchNorm2d(16, eps=1e-05, momentum=0.1, affine=True, track_running_stats=True)
      )
    )
    (2): SiLU()
  )
  (mv2): ModuleList(
    (0): SWMV2Block(
      (conv): Sequential(
        (0): SWConv2d(16, 64, kernel_size=(1, 1), stride=(1, 1), bias=False)
        (1): SWBatchNorm2d(
          64, eps=1e-05, momentum=0.1, affine=True, track_running_stats=True
          (bn): ModuleList(
            (0): BatchNorm2d(64, eps=1e-05, momentum=0.1, affine=True, track_running_stats=True)
            (1): BatchNorm2d(64, eps=1e-05, momentum=0.1, affine=True, track_running_stats=True)
            (2): BatchNorm2d(64, eps=1e-05, momentum=0.1, affine=True, track_running_stats=True)
            (3): BatchNorm2d(64, eps=1e-05, momentum=0.1, affine=True, track_running_stats=True)
            (4): BatchNorm2d(64, eps=1e-05, momentum=0.1, affine=True, track_running_stats=True)
            (5): BatchNorm2d(64, eps=1e-05, momentum=0.1, affine=True, track_running_stats=True)
            (6): BatchNorm2d(64, eps=1e-05, momentum=0.1, affine=True, track_running_stats=True)
            (7): BatchNorm2d(64, eps=1e-05, momentum=0.1, affine=True, track_running_stats=True)
            (8): BatchNorm2d(64, eps=1e-05, momentum=0.1, affine=True, track_running_stats=True)
            (9): BatchNorm2d(64, eps=1e-05, momentum=0.1, affine=True, track_running_stats=True)
            (10): BatchNorm2d(64, eps=1e-05, momentum=0.1, affine=True, track_running_stats=True)
            (11): BatchNorm2d(64, eps=1e-05, momentum=0.1, affine=True, track_running_stats=True)
            (12): BatchNorm2d(64, eps=1e-05, momentum=0.1, affine=True, track_running_stats=True)
            (13): BatchNorm2d(64, eps=1e-05, momentum=0.1, affine=True, track_running_stats=True)
            (14): BatchNorm2d(64, eps=1e-05, momentum=0.1, affine=True, track_running_stats=True)
            (15): BatchNorm2d(64, eps=1e-05, momentum=0.1, affine=True, track_running_stats=True)
            (16): BatchNorm2d(64, eps=1e-05, momentum=0.1, affine=True, track_running_stats=True)
            (17): BatchNorm2d(64, eps=1e-05, momentum=0.1, affine=True, track_running_stats=True)
            (18): BatchNorm2d(64, eps=1e-05, momentum=0.1, affine=True, track_running_stats=True)
            (19): BatchNorm2d(64, eps=1e-05, momentum=0.1, affine=True, track_running_stats=True)
            (20): BatchNorm2d(64, eps=1e-05, momentum=0.1, affine=True, track_running_stats=True)
            (21): BatchNorm2d(64, eps=1e-05, momentum=0.1, affine=True, track_running_stats=True)
            (22): BatchNorm2d(64, eps=1e-05, momentum=0.1, affine=True, track_running_stats=True)
            (23): BatchNorm2d(64, eps=1e-05, momentum=0.1, affine=True, track_running_stats=True)
            (24): BatchNorm2d(64, eps=1e-05, momentum=0.1, affine=True, track_running_stats=True)
          )
        )
        (2): SiLU()
        (3): Conv2d(64, 64, kernel_size=(3, 3), stride=(1, 1), padding=(1, 1), groups=64, bias=False)
        (4): SWBatchNorm2d(
          64, eps=1e-05, momentum=0.1, affine=True, track_running_stats=True
          (bn): ModuleList(
            (0): BatchNorm2d(64, eps=1e-05, momentum=0.1, affine=True, track_running_stats=True)
            (1): BatchNorm2d(64, eps=1e-05, momentum=0.1, affine=True, track_running_stats=True)
            (2): BatchNorm2d(64, eps=1e-05, momentum=0.1, affine=True, track_running_stats=True)
            (3): BatchNorm2d(64, eps=1e-05, momentum=0.1, affine=True, track_running_stats=True)
            (4): BatchNorm2d(64, eps=1e-05, momentum=0.1, affine=True, track_running_stats=True)
            (5): BatchNorm2d(64, eps=1e-05, momentum=0.1, affine=True, track_running_stats=True)
            (6): BatchNorm2d(64, eps=1e-05, momentum=0.1, affine=True, track_running_stats=True)
            (7): BatchNorm2d(64, eps=1e-05, momentum=0.1, affine=True, track_running_stats=True)
            (8): BatchNorm2d(64, eps=1e-05, momentum=0.1, affine=True, track_running_stats=True)
            (9): BatchNorm2d(64, eps=1e-05, momentum=0.1, affine=True, track_running_stats=True)
            (10): BatchNorm2d(64, eps=1e-05, momentum=0.1, affine=True, track_running_stats=True)
            (11): BatchNorm2d(64, eps=1e-05, momentum=0.1, affine=True, track_running_stats=True)
            (12): BatchNorm2d(64, eps=1e-05, momentum=0.1, affine=True, track_running_stats=True)
            (13): BatchNorm2d(64, eps=1e-05, momentum=0.1, affine=True, track_running_stats=True)
            (14): BatchNorm2d(64, eps=1e-05, momentum=0.1, affine=True, track_running_stats=True)
            (15): BatchNorm2d(64, eps=1e-05, momentum=0.1, affine=True, track_running_stats=True)
            (16): BatchNorm2d(64, eps=1e-05, momentum=0.1, affine=True, track_running_stats=True)
            (17): BatchNorm2d(64, eps=1e-05, momentum=0.1, affine=True, track_running_stats=True)
            (18): BatchNorm2d(64, eps=1e-05, momentum=0.1, affine=True, track_running_stats=True)
            (19): BatchNorm2d(64, eps=1e-05, momentum=0.1, affine=True, track_running_stats=True)
            (20): BatchNorm2d(64, eps=1e-05, momentum=0.1, affine=True, track_running_stats=True)
            (21): BatchNorm2d(64, eps=1e-05, momentum=0.1, affine=True, track_running_stats=True)
            (22): BatchNorm2d(64, eps=1e-05, momentum=0.1, affine=True, track_running_stats=True)
            (23): BatchNorm2d(64, eps=1e-05, momentum=0.1, affine=True, track_running_stats=True)
            (24): BatchNorm2d(64, eps=1e-05, momentum=0.1, affine=True, track_running_stats=True)
          )
        )
        (5): SiLU()
        (6): Conv2d(64, 32, kernel_size=(1, 1), stride=(1, 1), bias=False)
        (7): SWBatchNorm2d(
          32, eps=1e-05, momentum=0.1, affine=True, track_running_stats=True
          (bn): ModuleList(
            (0): BatchNorm2d(32, eps=1e-05, momentum=0.1, affine=True, track_running_stats=True)
            (1): BatchNorm2d(32, eps=1e-05, momentum=0.1, affine=True, track_running_stats=True)
            (2): BatchNorm2d(32, eps=1e-05, momentum=0.1, affine=True, track_running_stats=True)
            (3): BatchNorm2d(32, eps=1e-05, momentum=0.1, affine=True, track_running_stats=True)
            (4): BatchNorm2d(32, eps=1e-05, momentum=0.1, affine=True, track_running_stats=True)
            (5): BatchNorm2d(32, eps=1e-05, momentum=0.1, affine=True, track_running_stats=True)
            (6): BatchNorm2d(32, eps=1e-05, momentum=0.1, affine=True, track_running_stats=True)
            (7): BatchNorm2d(32, eps=1e-05, momentum=0.1, affine=True, track_running_stats=True)
            (8): BatchNorm2d(32, eps=1e-05, momentum=0.1, affine=True, track_running_stats=True)
            (9): BatchNorm2d(32, eps=1e-05, momentum=0.1, affine=True, track_running_stats=True)
            (10): BatchNorm2d(32, eps=1e-05, momentum=0.1, affine=True, track_running_stats=True)
            (11): BatchNorm2d(32, eps=1e-05, momentum=0.1, affine=True, track_running_stats=True)
            (12): BatchNorm2d(32, eps=1e-05, momentum=0.1, affine=True, track_running_stats=True)
            (13): BatchNorm2d(32, eps=1e-05, momentum=0.1, affine=True, track_running_stats=True)
            (14): BatchNorm2d(32, eps=1e-05, momentum=0.1, affine=True, track_running_stats=True)
            (15): BatchNorm2d(32, eps=1e-05, momentum=0.1, affine=True, track_running_stats=True)
            (16): BatchNorm2d(32, eps=1e-05, momentum=0.1, affine=True, track_running_stats=True)
            (17): BatchNorm2d(32, eps=1e-05, momentum=0.1, affine=True, track_running_stats=True)
            (18): BatchNorm2d(32, eps=1e-05, momentum=0.1, affine=True, track_running_stats=True)
            (19): BatchNorm2d(32, eps=1e-05, momentum=0.1, affine=True, track_running_stats=True)
            (20): BatchNorm2d(32, eps=1e-05, momentum=0.1, affine=True, track_running_stats=True)
            (21): BatchNorm2d(32, eps=1e-05, momentum=0.1, affine=True, track_running_stats=True)
            (22): BatchNorm2d(32, eps=1e-05, momentum=0.1, affine=True, track_running_stats=True)
            (23): BatchNorm2d(32, eps=1e-05, momentum=0.1, affine=True, track_running_stats=True)
            (24): BatchNorm2d(32, eps=1e-05, momentum=0.1, affine=True, track_running_stats=True)
          )
        )
      )
    )
    (1): MV2Block(
      (conv): Sequential(
        (0): Conv2d(32, 128, kernel_size=(1, 1), stride=(1, 1), bias=False)
        (1): SWBatchNorm2d(
          128, eps=1e-05, momentum=0.1, affine=True, track_running_stats=True
          (bn): ModuleList(
            (0): BatchNorm2d(128, eps=1e-05, momentum=0.1, affine=True, track_running_stats=True)
            (1): BatchNorm2d(128, eps=1e-05, momentum=0.1, affine=True, track_running_stats=True)
            (2): BatchNorm2d(128, eps=1e-05, momentum=0.1, affine=True, track_running_stats=True)
            (3): BatchNorm2d(128, eps=1e-05, momentum=0.1, affine=True, track_running_stats=True)
            (4): BatchNorm2d(128, eps=1e-05, momentum=0.1, affine=True, track_running_stats=True)
            (5): BatchNorm2d(128, eps=1e-05, momentum=0.1, affine=True, track_running_stats=True)
            (6): BatchNorm2d(128, eps=1e-05, momentum=0.1, affine=True, track_running_stats=True)
            (7): BatchNorm2d(128, eps=1e-05, momentum=0.1, affine=True, track_running_stats=True)
            (8): BatchNorm2d(128, eps=1e-05, momentum=0.1, affine=True, track_running_stats=True)
            (9): BatchNorm2d(128, eps=1e-05, momentum=0.1, affine=True, track_running_stats=True)
            (10): BatchNorm2d(128, eps=1e-05, momentum=0.1, affine=True, track_running_stats=True)
            (11): BatchNorm2d(128, eps=1e-05, momentum=0.1, affine=True, track_running_stats=True)
            (12): BatchNorm2d(128, eps=1e-05, momentum=0.1, affine=True, track_running_stats=True)
            (13): BatchNorm2d(128, eps=1e-05, momentum=0.1, affine=True, track_running_stats=True)
            (14): BatchNorm2d(128, eps=1e-05, momentum=0.1, affine=True, track_running_stats=True)
            (15): BatchNorm2d(128, eps=1e-05, momentum=0.1, affine=True, track_running_stats=True)
            (16): BatchNorm2d(128, eps=1e-05, momentum=0.1, affine=True, track_running_stats=True)
            (17): BatchNorm2d(128, eps=1e-05, momentum=0.1, affine=True, track_running_stats=True)
            (18): BatchNorm2d(128, eps=1e-05, momentum=0.1, affine=True, track_running_stats=True)
            (19): BatchNorm2d(128, eps=1e-05, momentum=0.1, affine=True, track_running_stats=True)
            (20): BatchNorm2d(128, eps=1e-05, momentum=0.1, affine=True, track_running_stats=True)
            (21): BatchNorm2d(128, eps=1e-05, momentum=0.1, affine=True, track_running_stats=True)
            (22): BatchNorm2d(128, eps=1e-05, momentum=0.1, affine=True, track_running_stats=True)
            (23): BatchNorm2d(128, eps=1e-05, momentum=0.1, affine=True, track_running_stats=True)
            (24): BatchNorm2d(128, eps=1e-05, momentum=0.1, affine=True, track_running_stats=True)
          )
        )
        (2): SiLU()
        (3): Conv2d(128, 128, kernel_size=(3, 3), stride=(2, 2), padding=(1, 1), groups=128, bias=False)
        (4): SWBatchNorm2d(
          128, eps=1e-05, momentum=0.1, affine=True, track_running_stats=True
          (bn): ModuleList(
            (0): BatchNorm2d(128, eps=1e-05, momentum=0.1, affine=True, track_running_stats=True)
            (1): BatchNorm2d(128, eps=1e-05, momentum=0.1, affine=True, track_running_stats=True)
            (2): BatchNorm2d(128, eps=1e-05, momentum=0.1, affine=True, track_running_stats=True)
            (3): BatchNorm2d(128, eps=1e-05, momentum=0.1, affine=True, track_running_stats=True)
            (4): BatchNorm2d(128, eps=1e-05, momentum=0.1, affine=True, track_running_stats=True)
            (5): BatchNorm2d(128, eps=1e-05, momentum=0.1, affine=True, track_running_stats=True)
            (6): BatchNorm2d(128, eps=1e-05, momentum=0.1, affine=True, track_running_stats=True)
            (7): BatchNorm2d(128, eps=1e-05, momentum=0.1, affine=True, track_running_stats=True)
            (8): BatchNorm2d(128, eps=1e-05, momentum=0.1, affine=True, track_running_stats=True)
            (9): BatchNorm2d(128, eps=1e-05, momentum=0.1, affine=True, track_running_stats=True)
            (10): BatchNorm2d(128, eps=1e-05, momentum=0.1, affine=True, track_running_stats=True)
            (11): BatchNorm2d(128, eps=1e-05, momentum=0.1, affine=True, track_running_stats=True)
            (12): BatchNorm2d(128, eps=1e-05, momentum=0.1, affine=True, track_running_stats=True)
            (13): BatchNorm2d(128, eps=1e-05, momentum=0.1, affine=True, track_running_stats=True)
            (14): BatchNorm2d(128, eps=1e-05, momentum=0.1, affine=True, track_running_stats=True)
            (15): BatchNorm2d(128, eps=1e-05, momentum=0.1, affine=True, track_running_stats=True)
            (16): BatchNorm2d(128, eps=1e-05, momentum=0.1, affine=True, track_running_stats=True)
            (17): BatchNorm2d(128, eps=1e-05, momentum=0.1, affine=True, track_running_stats=True)
            (18): BatchNorm2d(128, eps=1e-05, momentum=0.1, affine=True, track_running_stats=True)
            (19): BatchNorm2d(128, eps=1e-05, momentum=0.1, affine=True, track_running_stats=True)
            (20): BatchNorm2d(128, eps=1e-05, momentum=0.1, affine=True, track_running_stats=True)
            (21): BatchNorm2d(128, eps=1e-05, momentum=0.1, affine=True, track_running_stats=True)
            (22): BatchNorm2d(128, eps=1e-05, momentum=0.1, affine=True, track_running_stats=True)
            (23): BatchNorm2d(128, eps=1e-05, momentum=0.1, affine=True, track_running_stats=True)
            (24): BatchNorm2d(128, eps=1e-05, momentum=0.1, affine=True, track_running_stats=True)
          )
        )
        (5): SiLU()
        (6): Conv2d(128, 64, kernel_size=(1, 1), stride=(1, 1), bias=False)
        (7): SWBatchNorm2d(
          64, eps=1e-05, momentum=0.1, affine=True, track_running_stats=True
          (bn): ModuleList(
            (0): BatchNorm2d(64, eps=1e-05, momentum=0.1, affine=True, track_running_stats=True)
            (1): BatchNorm2d(64, eps=1e-05, momentum=0.1, affine=True, track_running_stats=True)
            (2): BatchNorm2d(64, eps=1e-05, momentum=0.1, affine=True, track_running_stats=True)
            (3): BatchNorm2d(64, eps=1e-05, momentum=0.1, affine=True, track_running_stats=True)
            (4): BatchNorm2d(64, eps=1e-05, momentum=0.1, affine=True, track_running_stats=True)
            (5): BatchNorm2d(64, eps=1e-05, momentum=0.1, affine=True, track_running_stats=True)
            (6): BatchNorm2d(64, eps=1e-05, momentum=0.1, affine=True, track_running_stats=True)
            (7): BatchNorm2d(64, eps=1e-05, momentum=0.1, affine=True, track_running_stats=True)
            (8): BatchNorm2d(64, eps=1e-05, momentum=0.1, affine=True, track_running_stats=True)
            (9): BatchNorm2d(64, eps=1e-05, momentum=0.1, affine=True, track_running_stats=True)
            (10): BatchNorm2d(64, eps=1e-05, momentum=0.1, affine=True, track_running_stats=True)
            (11): BatchNorm2d(64, eps=1e-05, momentum=0.1, affine=True, track_running_stats=True)
            (12): BatchNorm2d(64, eps=1e-05, momentum=0.1, affine=True, track_running_stats=True)
            (13): BatchNorm2d(64, eps=1e-05, momentum=0.1, affine=True, track_running_stats=True)
            (14): BatchNorm2d(64, eps=1e-05, momentum=0.1, affine=True, track_running_stats=True)
            (15): BatchNorm2d(64, eps=1e-05, momentum=0.1, affine=True, track_running_stats=True)
            (16): BatchNorm2d(64, eps=1e-05, momentum=0.1, affine=True, track_running_stats=True)
            (17): BatchNorm2d(64, eps=1e-05, momentum=0.1, affine=True, track_running_stats=True)
            (18): BatchNorm2d(64, eps=1e-05, momentum=0.1, affine=True, track_running_stats=True)
            (19): BatchNorm2d(64, eps=1e-05, momentum=0.1, affine=True, track_running_stats=True)
            (20): BatchNorm2d(64, eps=1e-05, momentum=0.1, affine=True, track_running_stats=True)
            (21): BatchNorm2d(64, eps=1e-05, momentum=0.1, affine=True, track_running_stats=True)
            (22): BatchNorm2d(64, eps=1e-05, momentum=0.1, affine=True, track_running_stats=True)
            (23): BatchNorm2d(64, eps=1e-05, momentum=0.1, affine=True, track_running_stats=True)
            (24): BatchNorm2d(64, eps=1e-05, momentum=0.1, affine=True, track_running_stats=True)
          )
        )
      )
    )
    (2): MV2Block(
      (conv): Sequential(
        (0): Conv2d(64, 256, kernel_size=(1, 1), stride=(1, 1), bias=False)
        (1): SWBatchNorm2d(
          256, eps=1e-05, momentum=0.1, affine=True, track_running_stats=True
          (bn): ModuleList(
            (0): BatchNorm2d(256, eps=1e-05, momentum=0.1, affine=True, track_running_stats=True)
            (1): BatchNorm2d(256, eps=1e-05, momentum=0.1, affine=True, track_running_stats=True)
            (2): BatchNorm2d(256, eps=1e-05, momentum=0.1, affine=True, track_running_stats=True)
            (3): BatchNorm2d(256, eps=1e-05, momentum=0.1, affine=True, track_running_stats=True)
            (4): BatchNorm2d(256, eps=1e-05, momentum=0.1, affine=True, track_running_stats=True)
            (5): BatchNorm2d(256, eps=1e-05, momentum=0.1, affine=True, track_running_stats=True)
            (6): BatchNorm2d(256, eps=1e-05, momentum=0.1, affine=True, track_running_stats=True)
            (7): BatchNorm2d(256, eps=1e-05, momentum=0.1, affine=True, track_running_stats=True)
            (8): BatchNorm2d(256, eps=1e-05, momentum=0.1, affine=True, track_running_stats=True)
            (9): BatchNorm2d(256, eps=1e-05, momentum=0.1, affine=True, track_running_stats=True)
            (10): BatchNorm2d(256, eps=1e-05, momentum=0.1, affine=True, track_running_stats=True)
            (11): BatchNorm2d(256, eps=1e-05, momentum=0.1, affine=True, track_running_stats=True)
            (12): BatchNorm2d(256, eps=1e-05, momentum=0.1, affine=True, track_running_stats=True)
            (13): BatchNorm2d(256, eps=1e-05, momentum=0.1, affine=True, track_running_stats=True)
            (14): BatchNorm2d(256, eps=1e-05, momentum=0.1, affine=True, track_running_stats=True)
            (15): BatchNorm2d(256, eps=1e-05, momentum=0.1, affine=True, track_running_stats=True)
            (16): BatchNorm2d(256, eps=1e-05, momentum=0.1, affine=True, track_running_stats=True)
            (17): BatchNorm2d(256, eps=1e-05, momentum=0.1, affine=True, track_running_stats=True)
            (18): BatchNorm2d(256, eps=1e-05, momentum=0.1, affine=True, track_running_stats=True)
            (19): BatchNorm2d(256, eps=1e-05, momentum=0.1, affine=True, track_running_stats=True)
            (20): BatchNorm2d(256, eps=1e-05, momentum=0.1, affine=True, track_running_stats=True)
            (21): BatchNorm2d(256, eps=1e-05, momentum=0.1, affine=True, track_running_stats=True)
            (22): BatchNorm2d(256, eps=1e-05, momentum=0.1, affine=True, track_running_stats=True)
            (23): BatchNorm2d(256, eps=1e-05, momentum=0.1, affine=True, track_running_stats=True)
            (24): BatchNorm2d(256, eps=1e-05, momentum=0.1, affine=True, track_running_stats=True)
          )
        )
        (2): SiLU()
        (3): Conv2d(256, 256, kernel_size=(3, 3), stride=(1, 1), padding=(1, 1), groups=256, bias=False)
        (4): SWBatchNorm2d(
          256, eps=1e-05, momentum=0.1, affine=True, track_running_stats=True
          (bn): ModuleList(
            (0): BatchNorm2d(256, eps=1e-05, momentum=0.1, affine=True, track_running_stats=True)
            (1): BatchNorm2d(256, eps=1e-05, momentum=0.1, affine=True, track_running_stats=True)
            (2): BatchNorm2d(256, eps=1e-05, momentum=0.1, affine=True, track_running_stats=True)
            (3): BatchNorm2d(256, eps=1e-05, momentum=0.1, affine=True, track_running_stats=True)
            (4): BatchNorm2d(256, eps=1e-05, momentum=0.1, affine=True, track_running_stats=True)
            (5): BatchNorm2d(256, eps=1e-05, momentum=0.1, affine=True, track_running_stats=True)
            (6): BatchNorm2d(256, eps=1e-05, momentum=0.1, affine=True, track_running_stats=True)
            (7): BatchNorm2d(256, eps=1e-05, momentum=0.1, affine=True, track_running_stats=True)
            (8): BatchNorm2d(256, eps=1e-05, momentum=0.1, affine=True, track_running_stats=True)
            (9): BatchNorm2d(256, eps=1e-05, momentum=0.1, affine=True, track_running_stats=True)
            (10): BatchNorm2d(256, eps=1e-05, momentum=0.1, affine=True, track_running_stats=True)
            (11): BatchNorm2d(256, eps=1e-05, momentum=0.1, affine=True, track_running_stats=True)
            (12): BatchNorm2d(256, eps=1e-05, momentum=0.1, affine=True, track_running_stats=True)
            (13): BatchNorm2d(256, eps=1e-05, momentum=0.1, affine=True, track_running_stats=True)
            (14): BatchNorm2d(256, eps=1e-05, momentum=0.1, affine=True, track_running_stats=True)
            (15): BatchNorm2d(256, eps=1e-05, momentum=0.1, affine=True, track_running_stats=True)
            (16): BatchNorm2d(256, eps=1e-05, momentum=0.1, affine=True, track_running_stats=True)
            (17): BatchNorm2d(256, eps=1e-05, momentum=0.1, affine=True, track_running_stats=True)
            (18): BatchNorm2d(256, eps=1e-05, momentum=0.1, affine=True, track_running_stats=True)
            (19): BatchNorm2d(256, eps=1e-05, momentum=0.1, affine=True, track_running_stats=True)
            (20): BatchNorm2d(256, eps=1e-05, momentum=0.1, affine=True, track_running_stats=True)
            (21): BatchNorm2d(256, eps=1e-05, momentum=0.1, affine=True, track_running_stats=True)
            (22): BatchNorm2d(256, eps=1e-05, momentum=0.1, affine=True, track_running_stats=True)
            (23): BatchNorm2d(256, eps=1e-05, momentum=0.1, affine=True, track_running_stats=True)
            (24): BatchNorm2d(256, eps=1e-05, momentum=0.1, affine=True, track_running_stats=True)
          )
        )
        (5): SiLU()
        (6): Conv2d(256, 64, kernel_size=(1, 1), stride=(1, 1), bias=False)
        (7): SWBatchNorm2d(
          64, eps=1e-05, momentum=0.1, affine=True, track_running_stats=True
          (bn): ModuleList(
            (0): BatchNorm2d(64, eps=1e-05, momentum=0.1, affine=True, track_running_stats=True)
            (1): BatchNorm2d(64, eps=1e-05, momentum=0.1, affine=True, track_running_stats=True)
            (2): BatchNorm2d(64, eps=1e-05, momentum=0.1, affine=True, track_running_stats=True)
            (3): BatchNorm2d(64, eps=1e-05, momentum=0.1, affine=True, track_running_stats=True)
            (4): BatchNorm2d(64, eps=1e-05, momentum=0.1, affine=True, track_running_stats=True)
            (5): BatchNorm2d(64, eps=1e-05, momentum=0.1, affine=True, track_running_stats=True)
            (6): BatchNorm2d(64, eps=1e-05, momentum=0.1, affine=True, track_running_stats=True)
            (7): BatchNorm2d(64, eps=1e-05, momentum=0.1, affine=True, track_running_stats=True)
            (8): BatchNorm2d(64, eps=1e-05, momentum=0.1, affine=True, track_running_stats=True)
            (9): BatchNorm2d(64, eps=1e-05, momentum=0.1, affine=True, track_running_stats=True)
            (10): BatchNorm2d(64, eps=1e-05, momentum=0.1, affine=True, track_running_stats=True)
            (11): BatchNorm2d(64, eps=1e-05, momentum=0.1, affine=True, track_running_stats=True)
            (12): BatchNorm2d(64, eps=1e-05, momentum=0.1, affine=True, track_running_stats=True)
            (13): BatchNorm2d(64, eps=1e-05, momentum=0.1, affine=True, track_running_stats=True)
            (14): BatchNorm2d(64, eps=1e-05, momentum=0.1, affine=True, track_running_stats=True)
            (15): BatchNorm2d(64, eps=1e-05, momentum=0.1, affine=True, track_running_stats=True)
            (16): BatchNorm2d(64, eps=1e-05, momentum=0.1, affine=True, track_running_stats=True)
            (17): BatchNorm2d(64, eps=1e-05, momentum=0.1, affine=True, track_running_stats=True)
            (18): BatchNorm2d(64, eps=1e-05, momentum=0.1, affine=True, track_running_stats=True)
            (19): BatchNorm2d(64, eps=1e-05, momentum=0.1, affine=True, track_running_stats=True)
            (20): BatchNorm2d(64, eps=1e-05, momentum=0.1, affine=True, track_running_stats=True)
            (21): BatchNorm2d(64, eps=1e-05, momentum=0.1, affine=True, track_running_stats=True)
            (22): BatchNorm2d(64, eps=1e-05, momentum=0.1, affine=True, track_running_stats=True)
            (23): BatchNorm2d(64, eps=1e-05, momentum=0.1, affine=True, track_running_stats=True)
            (24): BatchNorm2d(64, eps=1e-05, momentum=0.1, affine=True, track_running_stats=True)
          )
        )
      )
    )
    (3): MV2Block(
      (conv): Sequential(
        (0): Conv2d(64, 256, kernel_size=(1, 1), stride=(1, 1), bias=False)
        (1): SWBatchNorm2d(
          256, eps=1e-05, momentum=0.1, affine=True, track_running_stats=True
          (bn): ModuleList(
            (0): BatchNorm2d(256, eps=1e-05, momentum=0.1, affine=True, track_running_stats=True)
            (1): BatchNorm2d(256, eps=1e-05, momentum=0.1, affine=True, track_running_stats=True)
            (2): BatchNorm2d(256, eps=1e-05, momentum=0.1, affine=True, track_running_stats=True)
            (3): BatchNorm2d(256, eps=1e-05, momentum=0.1, affine=True, track_running_stats=True)
            (4): BatchNorm2d(256, eps=1e-05, momentum=0.1, affine=True, track_running_stats=True)
            (5): BatchNorm2d(256, eps=1e-05, momentum=0.1, affine=True, track_running_stats=True)
            (6): BatchNorm2d(256, eps=1e-05, momentum=0.1, affine=True, track_running_stats=True)
            (7): BatchNorm2d(256, eps=1e-05, momentum=0.1, affine=True, track_running_stats=True)
            (8): BatchNorm2d(256, eps=1e-05, momentum=0.1, affine=True, track_running_stats=True)
            (9): BatchNorm2d(256, eps=1e-05, momentum=0.1, affine=True, track_running_stats=True)
            (10): BatchNorm2d(256, eps=1e-05, momentum=0.1, affine=True, track_running_stats=True)
            (11): BatchNorm2d(256, eps=1e-05, momentum=0.1, affine=True, track_running_stats=True)
            (12): BatchNorm2d(256, eps=1e-05, momentum=0.1, affine=True, track_running_stats=True)
            (13): BatchNorm2d(256, eps=1e-05, momentum=0.1, affine=True, track_running_stats=True)
            (14): BatchNorm2d(256, eps=1e-05, momentum=0.1, affine=True, track_running_stats=True)
            (15): BatchNorm2d(256, eps=1e-05, momentum=0.1, affine=True, track_running_stats=True)
            (16): BatchNorm2d(256, eps=1e-05, momentum=0.1, affine=True, track_running_stats=True)
            (17): BatchNorm2d(256, eps=1e-05, momentum=0.1, affine=True, track_running_stats=True)
            (18): BatchNorm2d(256, eps=1e-05, momentum=0.1, affine=True, track_running_stats=True)
            (19): BatchNorm2d(256, eps=1e-05, momentum=0.1, affine=True, track_running_stats=True)
            (20): BatchNorm2d(256, eps=1e-05, momentum=0.1, affine=True, track_running_stats=True)
            (21): BatchNorm2d(256, eps=1e-05, momentum=0.1, affine=True, track_running_stats=True)
            (22): BatchNorm2d(256, eps=1e-05, momentum=0.1, affine=True, track_running_stats=True)
            (23): BatchNorm2d(256, eps=1e-05, momentum=0.1, affine=True, track_running_stats=True)
            (24): BatchNorm2d(256, eps=1e-05, momentum=0.1, affine=True, track_running_stats=True)
          )
        )
        (2): SiLU()
        (3): Conv2d(256, 256, kernel_size=(3, 3), stride=(1, 1), padding=(1, 1), groups=256, bias=False)
        (4): SWBatchNorm2d(
          256, eps=1e-05, momentum=0.1, affine=True, track_running_stats=True
          (bn): ModuleList(
            (0): BatchNorm2d(256, eps=1e-05, momentum=0.1, affine=True, track_running_stats=True)
            (1): BatchNorm2d(256, eps=1e-05, momentum=0.1, affine=True, track_running_stats=True)
            (2): BatchNorm2d(256, eps=1e-05, momentum=0.1, affine=True, track_running_stats=True)
            (3): BatchNorm2d(256, eps=1e-05, momentum=0.1, affine=True, track_running_stats=True)
            (4): BatchNorm2d(256, eps=1e-05, momentum=0.1, affine=True, track_running_stats=True)
            (5): BatchNorm2d(256, eps=1e-05, momentum=0.1, affine=True, track_running_stats=True)
            (6): BatchNorm2d(256, eps=1e-05, momentum=0.1, affine=True, track_running_stats=True)
            (7): BatchNorm2d(256, eps=1e-05, momentum=0.1, affine=True, track_running_stats=True)
            (8): BatchNorm2d(256, eps=1e-05, momentum=0.1, affine=True, track_running_stats=True)
            (9): BatchNorm2d(256, eps=1e-05, momentum=0.1, affine=True, track_running_stats=True)
            (10): BatchNorm2d(256, eps=1e-05, momentum=0.1, affine=True, track_running_stats=True)
            (11): BatchNorm2d(256, eps=1e-05, momentum=0.1, affine=True, track_running_stats=True)
            (12): BatchNorm2d(256, eps=1e-05, momentum=0.1, affine=True, track_running_stats=True)
            (13): BatchNorm2d(256, eps=1e-05, momentum=0.1, affine=True, track_running_stats=True)
            (14): BatchNorm2d(256, eps=1e-05, momentum=0.1, affine=True, track_running_stats=True)
            (15): BatchNorm2d(256, eps=1e-05, momentum=0.1, affine=True, track_running_stats=True)
            (16): BatchNorm2d(256, eps=1e-05, momentum=0.1, affine=True, track_running_stats=True)
            (17): BatchNorm2d(256, eps=1e-05, momentum=0.1, affine=True, track_running_stats=True)
            (18): BatchNorm2d(256, eps=1e-05, momentum=0.1, affine=True, track_running_stats=True)
            (19): BatchNorm2d(256, eps=1e-05, momentum=0.1, affine=True, track_running_stats=True)
            (20): BatchNorm2d(256, eps=1e-05, momentum=0.1, affine=True, track_running_stats=True)
            (21): BatchNorm2d(256, eps=1e-05, momentum=0.1, affine=True, track_running_stats=True)
            (22): BatchNorm2d(256, eps=1e-05, momentum=0.1, affine=True, track_running_stats=True)
            (23): BatchNorm2d(256, eps=1e-05, momentum=0.1, affine=True, track_running_stats=True)
            (24): BatchNorm2d(256, eps=1e-05, momentum=0.1, affine=True, track_running_stats=True)
          )
        )
        (5): SiLU()
        (6): Conv2d(256, 64, kernel_size=(1, 1), stride=(1, 1), bias=False)
        (7): SWBatchNorm2d(
          64, eps=1e-05, momentum=0.1, affine=True, track_running_stats=True
          (bn): ModuleList(
            (0): BatchNorm2d(64, eps=1e-05, momentum=0.1, affine=True, track_running_stats=True)
            (1): BatchNorm2d(64, eps=1e-05, momentum=0.1, affine=True, track_running_stats=True)
            (2): BatchNorm2d(64, eps=1e-05, momentum=0.1, affine=True, track_running_stats=True)
            (3): BatchNorm2d(64, eps=1e-05, momentum=0.1, affine=True, track_running_stats=True)
            (4): BatchNorm2d(64, eps=1e-05, momentum=0.1, affine=True, track_running_stats=True)
            (5): BatchNorm2d(64, eps=1e-05, momentum=0.1, affine=True, track_running_stats=True)
            (6): BatchNorm2d(64, eps=1e-05, momentum=0.1, affine=True, track_running_stats=True)
            (7): BatchNorm2d(64, eps=1e-05, momentum=0.1, affine=True, track_running_stats=True)
            (8): BatchNorm2d(64, eps=1e-05, momentum=0.1, affine=True, track_running_stats=True)
            (9): BatchNorm2d(64, eps=1e-05, momentum=0.1, affine=True, track_running_stats=True)
            (10): BatchNorm2d(64, eps=1e-05, momentum=0.1, affine=True, track_running_stats=True)
            (11): BatchNorm2d(64, eps=1e-05, momentum=0.1, affine=True, track_running_stats=True)
            (12): BatchNorm2d(64, eps=1e-05, momentum=0.1, affine=True, track_running_stats=True)
            (13): BatchNorm2d(64, eps=1e-05, momentum=0.1, affine=True, track_running_stats=True)
            (14): BatchNorm2d(64, eps=1e-05, momentum=0.1, affine=True, track_running_stats=True)
            (15): BatchNorm2d(64, eps=1e-05, momentum=0.1, affine=True, track_running_stats=True)
            (16): BatchNorm2d(64, eps=1e-05, momentum=0.1, affine=True, track_running_stats=True)
            (17): BatchNorm2d(64, eps=1e-05, momentum=0.1, affine=True, track_running_stats=True)
            (18): BatchNorm2d(64, eps=1e-05, momentum=0.1, affine=True, track_running_stats=True)
            (19): BatchNorm2d(64, eps=1e-05, momentum=0.1, affine=True, track_running_stats=True)
            (20): BatchNorm2d(64, eps=1e-05, momentum=0.1, affine=True, track_running_stats=True)
            (21): BatchNorm2d(64, eps=1e-05, momentum=0.1, affine=True, track_running_stats=True)
            (22): BatchNorm2d(64, eps=1e-05, momentum=0.1, affine=True, track_running_stats=True)
            (23): BatchNorm2d(64, eps=1e-05, momentum=0.1, affine=True, track_running_stats=True)
            (24): BatchNorm2d(64, eps=1e-05, momentum=0.1, affine=True, track_running_stats=True)
          )
        )
      )
    )
    (4): MV2Block(
      (conv): Sequential(
        (0): Conv2d(64, 256, kernel_size=(1, 1), stride=(1, 1), bias=False)
        (1): SWBatchNorm2d(
          256, eps=1e-05, momentum=0.1, affine=True, track_running_stats=True
          (bn): ModuleList(
            (0): BatchNorm2d(256, eps=1e-05, momentum=0.1, affine=True, track_running_stats=True)
            (1): BatchNorm2d(256, eps=1e-05, momentum=0.1, affine=True, track_running_stats=True)
            (2): BatchNorm2d(256, eps=1e-05, momentum=0.1, affine=True, track_running_stats=True)
            (3): BatchNorm2d(256, eps=1e-05, momentum=0.1, affine=True, track_running_stats=True)
            (4): BatchNorm2d(256, eps=1e-05, momentum=0.1, affine=True, track_running_stats=True)
            (5): BatchNorm2d(256, eps=1e-05, momentum=0.1, affine=True, track_running_stats=True)
            (6): BatchNorm2d(256, eps=1e-05, momentum=0.1, affine=True, track_running_stats=True)
            (7): BatchNorm2d(256, eps=1e-05, momentum=0.1, affine=True, track_running_stats=True)
            (8): BatchNorm2d(256, eps=1e-05, momentum=0.1, affine=True, track_running_stats=True)
            (9): BatchNorm2d(256, eps=1e-05, momentum=0.1, affine=True, track_running_stats=True)
            (10): BatchNorm2d(256, eps=1e-05, momentum=0.1, affine=True, track_running_stats=True)
            (11): BatchNorm2d(256, eps=1e-05, momentum=0.1, affine=True, track_running_stats=True)
            (12): BatchNorm2d(256, eps=1e-05, momentum=0.1, affine=True, track_running_stats=True)
            (13): BatchNorm2d(256, eps=1e-05, momentum=0.1, affine=True, track_running_stats=True)
            (14): BatchNorm2d(256, eps=1e-05, momentum=0.1, affine=True, track_running_stats=True)
            (15): BatchNorm2d(256, eps=1e-05, momentum=0.1, affine=True, track_running_stats=True)
            (16): BatchNorm2d(256, eps=1e-05, momentum=0.1, affine=True, track_running_stats=True)
            (17): BatchNorm2d(256, eps=1e-05, momentum=0.1, affine=True, track_running_stats=True)
            (18): BatchNorm2d(256, eps=1e-05, momentum=0.1, affine=True, track_running_stats=True)
            (19): BatchNorm2d(256, eps=1e-05, momentum=0.1, affine=True, track_running_stats=True)
            (20): BatchNorm2d(256, eps=1e-05, momentum=0.1, affine=True, track_running_stats=True)
            (21): BatchNorm2d(256, eps=1e-05, momentum=0.1, affine=True, track_running_stats=True)
            (22): BatchNorm2d(256, eps=1e-05, momentum=0.1, affine=True, track_running_stats=True)
            (23): BatchNorm2d(256, eps=1e-05, momentum=0.1, affine=True, track_running_stats=True)
            (24): BatchNorm2d(256, eps=1e-05, momentum=0.1, affine=True, track_running_stats=True)
          )
        )
        (2): SiLU()
        (3): Conv2d(256, 256, kernel_size=(3, 3), stride=(2, 2), padding=(1, 1), groups=256, bias=False)
        (4): SWBatchNorm2d(
          256, eps=1e-05, momentum=0.1, affine=True, track_running_stats=True
          (bn): ModuleList(
            (0): BatchNorm2d(256, eps=1e-05, momentum=0.1, affine=True, track_running_stats=True)
            (1): BatchNorm2d(256, eps=1e-05, momentum=0.1, affine=True, track_running_stats=True)
            (2): BatchNorm2d(256, eps=1e-05, momentum=0.1, affine=True, track_running_stats=True)
            (3): BatchNorm2d(256, eps=1e-05, momentum=0.1, affine=True, track_running_stats=True)
            (4): BatchNorm2d(256, eps=1e-05, momentum=0.1, affine=True, track_running_stats=True)
            (5): BatchNorm2d(256, eps=1e-05, momentum=0.1, affine=True, track_running_stats=True)
            (6): BatchNorm2d(256, eps=1e-05, momentum=0.1, affine=True, track_running_stats=True)
            (7): BatchNorm2d(256, eps=1e-05, momentum=0.1, affine=True, track_running_stats=True)
            (8): BatchNorm2d(256, eps=1e-05, momentum=0.1, affine=True, track_running_stats=True)
            (9): BatchNorm2d(256, eps=1e-05, momentum=0.1, affine=True, track_running_stats=True)
            (10): BatchNorm2d(256, eps=1e-05, momentum=0.1, affine=True, track_running_stats=True)
            (11): BatchNorm2d(256, eps=1e-05, momentum=0.1, affine=True, track_running_stats=True)
            (12): BatchNorm2d(256, eps=1e-05, momentum=0.1, affine=True, track_running_stats=True)
            (13): BatchNorm2d(256, eps=1e-05, momentum=0.1, affine=True, track_running_stats=True)
            (14): BatchNorm2d(256, eps=1e-05, momentum=0.1, affine=True, track_running_stats=True)
            (15): BatchNorm2d(256, eps=1e-05, momentum=0.1, affine=True, track_running_stats=True)
            (16): BatchNorm2d(256, eps=1e-05, momentum=0.1, affine=True, track_running_stats=True)
            (17): BatchNorm2d(256, eps=1e-05, momentum=0.1, affine=True, track_running_stats=True)
            (18): BatchNorm2d(256, eps=1e-05, momentum=0.1, affine=True, track_running_stats=True)
            (19): BatchNorm2d(256, eps=1e-05, momentum=0.1, affine=True, track_running_stats=True)
            (20): BatchNorm2d(256, eps=1e-05, momentum=0.1, affine=True, track_running_stats=True)
            (21): BatchNorm2d(256, eps=1e-05, momentum=0.1, affine=True, track_running_stats=True)
            (22): BatchNorm2d(256, eps=1e-05, momentum=0.1, affine=True, track_running_stats=True)
            (23): BatchNorm2d(256, eps=1e-05, momentum=0.1, affine=True, track_running_stats=True)
            (24): BatchNorm2d(256, eps=1e-05, momentum=0.1, affine=True, track_running_stats=True)
          )
        )
        (5): SiLU()
        (6): Conv2d(256, 96, kernel_size=(1, 1), stride=(1, 1), bias=False)
        (7): SWBatchNorm2d(
          96, eps=1e-05, momentum=0.1, affine=True, track_running_stats=True
          (bn): ModuleList(
            (0): BatchNorm2d(96, eps=1e-05, momentum=0.1, affine=True, track_running_stats=True)
            (1): BatchNorm2d(96, eps=1e-05, momentum=0.1, affine=True, track_running_stats=True)
            (2): BatchNorm2d(96, eps=1e-05, momentum=0.1, affine=True, track_running_stats=True)
            (3): BatchNorm2d(96, eps=1e-05, momentum=0.1, affine=True, track_running_stats=True)
            (4): BatchNorm2d(96, eps=1e-05, momentum=0.1, affine=True, track_running_stats=True)
            (5): BatchNorm2d(96, eps=1e-05, momentum=0.1, affine=True, track_running_stats=True)
            (6): BatchNorm2d(96, eps=1e-05, momentum=0.1, affine=True, track_running_stats=True)
            (7): BatchNorm2d(96, eps=1e-05, momentum=0.1, affine=True, track_running_stats=True)
            (8): BatchNorm2d(96, eps=1e-05, momentum=0.1, affine=True, track_running_stats=True)
            (9): BatchNorm2d(96, eps=1e-05, momentum=0.1, affine=True, track_running_stats=True)
            (10): BatchNorm2d(96, eps=1e-05, momentum=0.1, affine=True, track_running_stats=True)
            (11): BatchNorm2d(96, eps=1e-05, momentum=0.1, affine=True, track_running_stats=True)
            (12): BatchNorm2d(96, eps=1e-05, momentum=0.1, affine=True, track_running_stats=True)
            (13): BatchNorm2d(96, eps=1e-05, momentum=0.1, affine=True, track_running_stats=True)
            (14): BatchNorm2d(96, eps=1e-05, momentum=0.1, affine=True, track_running_stats=True)
            (15): BatchNorm2d(96, eps=1e-05, momentum=0.1, affine=True, track_running_stats=True)
            (16): BatchNorm2d(96, eps=1e-05, momentum=0.1, affine=True, track_running_stats=True)
            (17): BatchNorm2d(96, eps=1e-05, momentum=0.1, affine=True, track_running_stats=True)
            (18): BatchNorm2d(96, eps=1e-05, momentum=0.1, affine=True, track_running_stats=True)
            (19): BatchNorm2d(96, eps=1e-05, momentum=0.1, affine=True, track_running_stats=True)
            (20): BatchNorm2d(96, eps=1e-05, momentum=0.1, affine=True, track_running_stats=True)
            (21): BatchNorm2d(96, eps=1e-05, momentum=0.1, affine=True, track_running_stats=True)
            (22): BatchNorm2d(96, eps=1e-05, momentum=0.1, affine=True, track_running_stats=True)
            (23): BatchNorm2d(96, eps=1e-05, momentum=0.1, affine=True, track_running_stats=True)
            (24): BatchNorm2d(96, eps=1e-05, momentum=0.1, affine=True, track_running_stats=True)
          )
        )
      )
    )
    (5): MV2Block(
      (conv): Sequential(
        (0): Conv2d(96, 384, kernel_size=(1, 1), stride=(1, 1), bias=False)
        (1): SWBatchNorm2d(
          384, eps=1e-05, momentum=0.1, affine=True, track_running_stats=True
          (bn): ModuleList(
            (0): BatchNorm2d(384, eps=1e-05, momentum=0.1, affine=True, track_running_stats=True)
            (1): BatchNorm2d(384, eps=1e-05, momentum=0.1, affine=True, track_running_stats=True)
            (2): BatchNorm2d(384, eps=1e-05, momentum=0.1, affine=True, track_running_stats=True)
            (3): BatchNorm2d(384, eps=1e-05, momentum=0.1, affine=True, track_running_stats=True)
            (4): BatchNorm2d(384, eps=1e-05, momentum=0.1, affine=True, track_running_stats=True)
            (5): BatchNorm2d(384, eps=1e-05, momentum=0.1, affine=True, track_running_stats=True)
            (6): BatchNorm2d(384, eps=1e-05, momentum=0.1, affine=True, track_running_stats=True)
            (7): BatchNorm2d(384, eps=1e-05, momentum=0.1, affine=True, track_running_stats=True)
            (8): BatchNorm2d(384, eps=1e-05, momentum=0.1, affine=True, track_running_stats=True)
            (9): BatchNorm2d(384, eps=1e-05, momentum=0.1, affine=True, track_running_stats=True)
            (10): BatchNorm2d(384, eps=1e-05, momentum=0.1, affine=True, track_running_stats=True)
            (11): BatchNorm2d(384, eps=1e-05, momentum=0.1, affine=True, track_running_stats=True)
            (12): BatchNorm2d(384, eps=1e-05, momentum=0.1, affine=True, track_running_stats=True)
            (13): BatchNorm2d(384, eps=1e-05, momentum=0.1, affine=True, track_running_stats=True)
            (14): BatchNorm2d(384, eps=1e-05, momentum=0.1, affine=True, track_running_stats=True)
            (15): BatchNorm2d(384, eps=1e-05, momentum=0.1, affine=True, track_running_stats=True)
            (16): BatchNorm2d(384, eps=1e-05, momentum=0.1, affine=True, track_running_stats=True)
            (17): BatchNorm2d(384, eps=1e-05, momentum=0.1, affine=True, track_running_stats=True)
            (18): BatchNorm2d(384, eps=1e-05, momentum=0.1, affine=True, track_running_stats=True)
            (19): BatchNorm2d(384, eps=1e-05, momentum=0.1, affine=True, track_running_stats=True)
            (20): BatchNorm2d(384, eps=1e-05, momentum=0.1, affine=True, track_running_stats=True)
            (21): BatchNorm2d(384, eps=1e-05, momentum=0.1, affine=True, track_running_stats=True)
            (22): BatchNorm2d(384, eps=1e-05, momentum=0.1, affine=True, track_running_stats=True)
            (23): BatchNorm2d(384, eps=1e-05, momentum=0.1, affine=True, track_running_stats=True)
            (24): BatchNorm2d(384, eps=1e-05, momentum=0.1, affine=True, track_running_stats=True)
          )
        )
        (2): SiLU()
        (3): Conv2d(384, 384, kernel_size=(3, 3), stride=(2, 2), padding=(1, 1), groups=384, bias=False)
        (4): SWBatchNorm2d(
          384, eps=1e-05, momentum=0.1, affine=True, track_running_stats=True
          (bn): ModuleList(
            (0): BatchNorm2d(384, eps=1e-05, momentum=0.1, affine=True, track_running_stats=True)
            (1): BatchNorm2d(384, eps=1e-05, momentum=0.1, affine=True, track_running_stats=True)
            (2): BatchNorm2d(384, eps=1e-05, momentum=0.1, affine=True, track_running_stats=True)
            (3): BatchNorm2d(384, eps=1e-05, momentum=0.1, affine=True, track_running_stats=True)
            (4): BatchNorm2d(384, eps=1e-05, momentum=0.1, affine=True, track_running_stats=True)
            (5): BatchNorm2d(384, eps=1e-05, momentum=0.1, affine=True, track_running_stats=True)
            (6): BatchNorm2d(384, eps=1e-05, momentum=0.1, affine=True, track_running_stats=True)
            (7): BatchNorm2d(384, eps=1e-05, momentum=0.1, affine=True, track_running_stats=True)
            (8): BatchNorm2d(384, eps=1e-05, momentum=0.1, affine=True, track_running_stats=True)
            (9): BatchNorm2d(384, eps=1e-05, momentum=0.1, affine=True, track_running_stats=True)
            (10): BatchNorm2d(384, eps=1e-05, momentum=0.1, affine=True, track_running_stats=True)
            (11): BatchNorm2d(384, eps=1e-05, momentum=0.1, affine=True, track_running_stats=True)
            (12): BatchNorm2d(384, eps=1e-05, momentum=0.1, affine=True, track_running_stats=True)
            (13): BatchNorm2d(384, eps=1e-05, momentum=0.1, affine=True, track_running_stats=True)
            (14): BatchNorm2d(384, eps=1e-05, momentum=0.1, affine=True, track_running_stats=True)
            (15): BatchNorm2d(384, eps=1e-05, momentum=0.1, affine=True, track_running_stats=True)
            (16): BatchNorm2d(384, eps=1e-05, momentum=0.1, affine=True, track_running_stats=True)
            (17): BatchNorm2d(384, eps=1e-05, momentum=0.1, affine=True, track_running_stats=True)
            (18): BatchNorm2d(384, eps=1e-05, momentum=0.1, affine=True, track_running_stats=True)
            (19): BatchNorm2d(384, eps=1e-05, momentum=0.1, affine=True, track_running_stats=True)
            (20): BatchNorm2d(384, eps=1e-05, momentum=0.1, affine=True, track_running_stats=True)
            (21): BatchNorm2d(384, eps=1e-05, momentum=0.1, affine=True, track_running_stats=True)
            (22): BatchNorm2d(384, eps=1e-05, momentum=0.1, affine=True, track_running_stats=True)
            (23): BatchNorm2d(384, eps=1e-05, momentum=0.1, affine=True, track_running_stats=True)
            (24): BatchNorm2d(384, eps=1e-05, momentum=0.1, affine=True, track_running_stats=True)
          )
        )
        (5): SiLU()
        (6): Conv2d(384, 128, kernel_size=(1, 1), stride=(1, 1), bias=False)
        (7): SWBatchNorm2d(
          128, eps=1e-05, momentum=0.1, affine=True, track_running_stats=True
          (bn): ModuleList(
            (0): BatchNorm2d(128, eps=1e-05, momentum=0.1, affine=True, track_running_stats=True)
            (1): BatchNorm2d(128, eps=1e-05, momentum=0.1, affine=True, track_running_stats=True)
            (2): BatchNorm2d(128, eps=1e-05, momentum=0.1, affine=True, track_running_stats=True)
            (3): BatchNorm2d(128, eps=1e-05, momentum=0.1, affine=True, track_running_stats=True)
            (4): BatchNorm2d(128, eps=1e-05, momentum=0.1, affine=True, track_running_stats=True)
            (5): BatchNorm2d(128, eps=1e-05, momentum=0.1, affine=True, track_running_stats=True)
            (6): BatchNorm2d(128, eps=1e-05, momentum=0.1, affine=True, track_running_stats=True)
            (7): BatchNorm2d(128, eps=1e-05, momentum=0.1, affine=True, track_running_stats=True)
            (8): BatchNorm2d(128, eps=1e-05, momentum=0.1, affine=True, track_running_stats=True)
            (9): BatchNorm2d(128, eps=1e-05, momentum=0.1, affine=True, track_running_stats=True)
            (10): BatchNorm2d(128, eps=1e-05, momentum=0.1, affine=True, track_running_stats=True)
            (11): BatchNorm2d(128, eps=1e-05, momentum=0.1, affine=True, track_running_stats=True)
            (12): BatchNorm2d(128, eps=1e-05, momentum=0.1, affine=True, track_running_stats=True)
            (13): BatchNorm2d(128, eps=1e-05, momentum=0.1, affine=True, track_running_stats=True)
            (14): BatchNorm2d(128, eps=1e-05, momentum=0.1, affine=True, track_running_stats=True)
            (15): BatchNorm2d(128, eps=1e-05, momentum=0.1, affine=True, track_running_stats=True)
            (16): BatchNorm2d(128, eps=1e-05, momentum=0.1, affine=True, track_running_stats=True)
            (17): BatchNorm2d(128, eps=1e-05, momentum=0.1, affine=True, track_running_stats=True)
            (18): BatchNorm2d(128, eps=1e-05, momentum=0.1, affine=True, track_running_stats=True)
            (19): BatchNorm2d(128, eps=1e-05, momentum=0.1, affine=True, track_running_stats=True)
            (20): BatchNorm2d(128, eps=1e-05, momentum=0.1, affine=True, track_running_stats=True)
            (21): BatchNorm2d(128, eps=1e-05, momentum=0.1, affine=True, track_running_stats=True)
            (22): BatchNorm2d(128, eps=1e-05, momentum=0.1, affine=True, track_running_stats=True)
            (23): BatchNorm2d(128, eps=1e-05, momentum=0.1, affine=True, track_running_stats=True)
            (24): BatchNorm2d(128, eps=1e-05, momentum=0.1, affine=True, track_running_stats=True)
          )
        )
      )
    )
    (6): MV2Block(
      (conv): Sequential(
        (0): Conv2d(128, 512, kernel_size=(1, 1), stride=(1, 1), bias=False)
        (1): SWBatchNorm2d(
          512, eps=1e-05, momentum=0.1, affine=True, track_running_stats=True
          (bn): ModuleList(
            (0): BatchNorm2d(512, eps=1e-05, momentum=0.1, affine=True, track_running_stats=True)
            (1): BatchNorm2d(512, eps=1e-05, momentum=0.1, affine=True, track_running_stats=True)
            (2): BatchNorm2d(512, eps=1e-05, momentum=0.1, affine=True, track_running_stats=True)
            (3): BatchNorm2d(512, eps=1e-05, momentum=0.1, affine=True, track_running_stats=True)
            (4): BatchNorm2d(512, eps=1e-05, momentum=0.1, affine=True, track_running_stats=True)
            (5): BatchNorm2d(512, eps=1e-05, momentum=0.1, affine=True, track_running_stats=True)
            (6): BatchNorm2d(512, eps=1e-05, momentum=0.1, affine=True, track_running_stats=True)
            (7): BatchNorm2d(512, eps=1e-05, momentum=0.1, affine=True, track_running_stats=True)
            (8): BatchNorm2d(512, eps=1e-05, momentum=0.1, affine=True, track_running_stats=True)
            (9): BatchNorm2d(512, eps=1e-05, momentum=0.1, affine=True, track_running_stats=True)
            (10): BatchNorm2d(512, eps=1e-05, momentum=0.1, affine=True, track_running_stats=True)
            (11): BatchNorm2d(512, eps=1e-05, momentum=0.1, affine=True, track_running_stats=True)
            (12): BatchNorm2d(512, eps=1e-05, momentum=0.1, affine=True, track_running_stats=True)
            (13): BatchNorm2d(512, eps=1e-05, momentum=0.1, affine=True, track_running_stats=True)
            (14): BatchNorm2d(512, eps=1e-05, momentum=0.1, affine=True, track_running_stats=True)
            (15): BatchNorm2d(512, eps=1e-05, momentum=0.1, affine=True, track_running_stats=True)
            (16): BatchNorm2d(512, eps=1e-05, momentum=0.1, affine=True, track_running_stats=True)
            (17): BatchNorm2d(512, eps=1e-05, momentum=0.1, affine=True, track_running_stats=True)
            (18): BatchNorm2d(512, eps=1e-05, momentum=0.1, affine=True, track_running_stats=True)
            (19): BatchNorm2d(512, eps=1e-05, momentum=0.1, affine=True, track_running_stats=True)
            (20): BatchNorm2d(512, eps=1e-05, momentum=0.1, affine=True, track_running_stats=True)
            (21): BatchNorm2d(512, eps=1e-05, momentum=0.1, affine=True, track_running_stats=True)
            (22): BatchNorm2d(512, eps=1e-05, momentum=0.1, affine=True, track_running_stats=True)
            (23): BatchNorm2d(512, eps=1e-05, momentum=0.1, affine=True, track_running_stats=True)
            (24): BatchNorm2d(512, eps=1e-05, momentum=0.1, affine=True, track_running_stats=True)
          )
        )
        (2): SiLU()
        (3): Conv2d(512, 512, kernel_size=(3, 3), stride=(2, 2), padding=(1, 1), groups=512, bias=False)
        (4): SWBatchNorm2d(
          512, eps=1e-05, momentum=0.1, affine=True, track_running_stats=True
          (bn): ModuleList(
            (0): BatchNorm2d(512, eps=1e-05, momentum=0.1, affine=True, track_running_stats=True)
            (1): BatchNorm2d(512, eps=1e-05, momentum=0.1, affine=True, track_running_stats=True)
            (2): BatchNorm2d(512, eps=1e-05, momentum=0.1, affine=True, track_running_stats=True)
            (3): BatchNorm2d(512, eps=1e-05, momentum=0.1, affine=True, track_running_stats=True)
            (4): BatchNorm2d(512, eps=1e-05, momentum=0.1, affine=True, track_running_stats=True)
            (5): BatchNorm2d(512, eps=1e-05, momentum=0.1, affine=True, track_running_stats=True)
            (6): BatchNorm2d(512, eps=1e-05, momentum=0.1, affine=True, track_running_stats=True)
            (7): BatchNorm2d(512, eps=1e-05, momentum=0.1, affine=True, track_running_stats=True)
            (8): BatchNorm2d(512, eps=1e-05, momentum=0.1, affine=True, track_running_stats=True)
            (9): BatchNorm2d(512, eps=1e-05, momentum=0.1, affine=True, track_running_stats=True)
            (10): BatchNorm2d(512, eps=1e-05, momentum=0.1, affine=True, track_running_stats=True)
            (11): BatchNorm2d(512, eps=1e-05, momentum=0.1, affine=True, track_running_stats=True)
            (12): BatchNorm2d(512, eps=1e-05, momentum=0.1, affine=True, track_running_stats=True)
            (13): BatchNorm2d(512, eps=1e-05, momentum=0.1, affine=True, track_running_stats=True)
            (14): BatchNorm2d(512, eps=1e-05, momentum=0.1, affine=True, track_running_stats=True)
            (15): BatchNorm2d(512, eps=1e-05, momentum=0.1, affine=True, track_running_stats=True)
            (16): BatchNorm2d(512, eps=1e-05, momentum=0.1, affine=True, track_running_stats=True)
            (17): BatchNorm2d(512, eps=1e-05, momentum=0.1, affine=True, track_running_stats=True)
            (18): BatchNorm2d(512, eps=1e-05, momentum=0.1, affine=True, track_running_stats=True)
            (19): BatchNorm2d(512, eps=1e-05, momentum=0.1, affine=True, track_running_stats=True)
            (20): BatchNorm2d(512, eps=1e-05, momentum=0.1, affine=True, track_running_stats=True)
            (21): BatchNorm2d(512, eps=1e-05, momentum=0.1, affine=True, track_running_stats=True)
            (22): BatchNorm2d(512, eps=1e-05, momentum=0.1, affine=True, track_running_stats=True)
            (23): BatchNorm2d(512, eps=1e-05, momentum=0.1, affine=True, track_running_stats=True)
            (24): BatchNorm2d(512, eps=1e-05, momentum=0.1, affine=True, track_running_stats=True)
          )
        )
        (5): SiLU()
        (6): Conv2d(512, 160, kernel_size=(1, 1), stride=(1, 1), bias=False)
        (7): SWBatchNorm2d(
          160, eps=1e-05, momentum=0.1, affine=True, track_running_stats=True
          (bn): ModuleList(
            (0): BatchNorm2d(160, eps=1e-05, momentum=0.1, affine=True, track_running_stats=True)
            (1): BatchNorm2d(160, eps=1e-05, momentum=0.1, affine=True, track_running_stats=True)
            (2): BatchNorm2d(160, eps=1e-05, momentum=0.1, affine=True, track_running_stats=True)
            (3): BatchNorm2d(160, eps=1e-05, momentum=0.1, affine=True, track_running_stats=True)
            (4): BatchNorm2d(160, eps=1e-05, momentum=0.1, affine=True, track_running_stats=True)
            (5): BatchNorm2d(160, eps=1e-05, momentum=0.1, affine=True, track_running_stats=True)
            (6): BatchNorm2d(160, eps=1e-05, momentum=0.1, affine=True, track_running_stats=True)
            (7): BatchNorm2d(160, eps=1e-05, momentum=0.1, affine=True, track_running_stats=True)
            (8): BatchNorm2d(160, eps=1e-05, momentum=0.1, affine=True, track_running_stats=True)
            (9): BatchNorm2d(160, eps=1e-05, momentum=0.1, affine=True, track_running_stats=True)
            (10): BatchNorm2d(160, eps=1e-05, momentum=0.1, affine=True, track_running_stats=True)
            (11): BatchNorm2d(160, eps=1e-05, momentum=0.1, affine=True, track_running_stats=True)
            (12): BatchNorm2d(160, eps=1e-05, momentum=0.1, affine=True, track_running_stats=True)
            (13): BatchNorm2d(160, eps=1e-05, momentum=0.1, affine=True, track_running_stats=True)
            (14): BatchNorm2d(160, eps=1e-05, momentum=0.1, affine=True, track_running_stats=True)
            (15): BatchNorm2d(160, eps=1e-05, momentum=0.1, affine=True, track_running_stats=True)
            (16): BatchNorm2d(160, eps=1e-05, momentum=0.1, affine=True, track_running_stats=True)
            (17): BatchNorm2d(160, eps=1e-05, momentum=0.1, affine=True, track_running_stats=True)
            (18): BatchNorm2d(160, eps=1e-05, momentum=0.1, affine=True, track_running_stats=True)
            (19): BatchNorm2d(160, eps=1e-05, momentum=0.1, affine=True, track_running_stats=True)
            (20): BatchNorm2d(160, eps=1e-05, momentum=0.1, affine=True, track_running_stats=True)
            (21): BatchNorm2d(160, eps=1e-05, momentum=0.1, affine=True, track_running_stats=True)
            (22): BatchNorm2d(160, eps=1e-05, momentum=0.1, affine=True, track_running_stats=True)
            (23): BatchNorm2d(160, eps=1e-05, momentum=0.1, affine=True, track_running_stats=True)
            (24): BatchNorm2d(160, eps=1e-05, momentum=0.1, affine=True, track_running_stats=True)
          )
        )
      )
    )
  )
  (mvit): ModuleList(
    (0): MobileViTBlock(
      (conv1): Sequential(
        (0): Conv2d(96, 96, kernel_size=(3, 3), stride=(1, 1), padding=(1, 1), bias=False)
        (1): SWBatchNorm2d(
          96, eps=1e-05, momentum=0.1, affine=True, track_running_stats=True
          (bn): ModuleList(
            (0): BatchNorm2d(96, eps=1e-05, momentum=0.1, affine=True, track_running_stats=True)
            (1): BatchNorm2d(96, eps=1e-05, momentum=0.1, affine=True, track_running_stats=True)
            (2): BatchNorm2d(96, eps=1e-05, momentum=0.1, affine=True, track_running_stats=True)
            (3): BatchNorm2d(96, eps=1e-05, momentum=0.1, affine=True, track_running_stats=True)
            (4): BatchNorm2d(96, eps=1e-05, momentum=0.1, affine=True, track_running_stats=True)
            (5): BatchNorm2d(96, eps=1e-05, momentum=0.1, affine=True, track_running_stats=True)
            (6): BatchNorm2d(96, eps=1e-05, momentum=0.1, affine=True, track_running_stats=True)
            (7): BatchNorm2d(96, eps=1e-05, momentum=0.1, affine=True, track_running_stats=True)
            (8): BatchNorm2d(96, eps=1e-05, momentum=0.1, affine=True, track_running_stats=True)
            (9): BatchNorm2d(96, eps=1e-05, momentum=0.1, affine=True, track_running_stats=True)
            (10): BatchNorm2d(96, eps=1e-05, momentum=0.1, affine=True, track_running_stats=True)
            (11): BatchNorm2d(96, eps=1e-05, momentum=0.1, affine=True, track_running_stats=True)
            (12): BatchNorm2d(96, eps=1e-05, momentum=0.1, affine=True, track_running_stats=True)
            (13): BatchNorm2d(96, eps=1e-05, momentum=0.1, affine=True, track_running_stats=True)
            (14): BatchNorm2d(96, eps=1e-05, momentum=0.1, affine=True, track_running_stats=True)
            (15): BatchNorm2d(96, eps=1e-05, momentum=0.1, affine=True, track_running_stats=True)
            (16): BatchNorm2d(96, eps=1e-05, momentum=0.1, affine=True, track_running_stats=True)
            (17): BatchNorm2d(96, eps=1e-05, momentum=0.1, affine=True, track_running_stats=True)
            (18): BatchNorm2d(96, eps=1e-05, momentum=0.1, affine=True, track_running_stats=True)
            (19): BatchNorm2d(96, eps=1e-05, momentum=0.1, affine=True, track_running_stats=True)
            (20): BatchNorm2d(96, eps=1e-05, momentum=0.1, affine=True, track_running_stats=True)
            (21): BatchNorm2d(96, eps=1e-05, momentum=0.1, affine=True, track_running_stats=True)
            (22): BatchNorm2d(96, eps=1e-05, momentum=0.1, affine=True, track_running_stats=True)
            (23): BatchNorm2d(96, eps=1e-05, momentum=0.1, affine=True, track_running_stats=True)
            (24): BatchNorm2d(96, eps=1e-05, momentum=0.1, affine=True, track_running_stats=True)
          )
        )
        (2): SiLU()
      )
      (conv2): Sequential(
        (0): Conv2d(96, 144, kernel_size=(1, 1), stride=(1, 1), bias=False)
        (1): SWBatchNorm2d(
          144, eps=1e-05, momentum=0.1, affine=True, track_running_stats=True
          (bn): ModuleList(
            (0): BatchNorm2d(144, eps=1e-05, momentum=0.1, affine=True, track_running_stats=True)
            (1): BatchNorm2d(144, eps=1e-05, momentum=0.1, affine=True, track_running_stats=True)
            (2): BatchNorm2d(144, eps=1e-05, momentum=0.1, affine=True, track_running_stats=True)
            (3): BatchNorm2d(144, eps=1e-05, momentum=0.1, affine=True, track_running_stats=True)
            (4): BatchNorm2d(144, eps=1e-05, momentum=0.1, affine=True, track_running_stats=True)
            (5): BatchNorm2d(144, eps=1e-05, momentum=0.1, affine=True, track_running_stats=True)
            (6): BatchNorm2d(144, eps=1e-05, momentum=0.1, affine=True, track_running_stats=True)
            (7): BatchNorm2d(144, eps=1e-05, momentum=0.1, affine=True, track_running_stats=True)
            (8): BatchNorm2d(144, eps=1e-05, momentum=0.1, affine=True, track_running_stats=True)
            (9): BatchNorm2d(144, eps=1e-05, momentum=0.1, affine=True, track_running_stats=True)
            (10): BatchNorm2d(144, eps=1e-05, momentum=0.1, affine=True, track_running_stats=True)
            (11): BatchNorm2d(144, eps=1e-05, momentum=0.1, affine=True, track_running_stats=True)
            (12): BatchNorm2d(144, eps=1e-05, momentum=0.1, affine=True, track_running_stats=True)
            (13): BatchNorm2d(144, eps=1e-05, momentum=0.1, affine=True, track_running_stats=True)
            (14): BatchNorm2d(144, eps=1e-05, momentum=0.1, affine=True, track_running_stats=True)
            (15): BatchNorm2d(144, eps=1e-05, momentum=0.1, affine=True, track_running_stats=True)
            (16): BatchNorm2d(144, eps=1e-05, momentum=0.1, affine=True, track_running_stats=True)
            (17): BatchNorm2d(144, eps=1e-05, momentum=0.1, affine=True, track_running_stats=True)
            (18): BatchNorm2d(144, eps=1e-05, momentum=0.1, affine=True, track_running_stats=True)
            (19): BatchNorm2d(144, eps=1e-05, momentum=0.1, affine=True, track_running_stats=True)
            (20): BatchNorm2d(144, eps=1e-05, momentum=0.1, affine=True, track_running_stats=True)
            (21): BatchNorm2d(144, eps=1e-05, momentum=0.1, affine=True, track_running_stats=True)
            (22): BatchNorm2d(144, eps=1e-05, momentum=0.1, affine=True, track_running_stats=True)
            (23): BatchNorm2d(144, eps=1e-05, momentum=0.1, affine=True, track_running_stats=True)
            (24): BatchNorm2d(144, eps=1e-05, momentum=0.1, affine=True, track_running_stats=True)
          )
        )
        (2): SiLU()
      )
      (transformer): Transformer(
        (layers): ModuleList(
          (0): ModuleList(
            (0): PreNorm(
              (norm): SWLayerNorm(
                (144,), eps=1e-05, elementwise_affine=True
                (ln): ModuleList(
                  (0): LayerNorm((144,), eps=1e-05, elementwise_affine=True)
                  (1): LayerNorm((144,), eps=1e-05, elementwise_affine=True)
                  (2): LayerNorm((144,), eps=1e-05, elementwise_affine=True)
                  (3): LayerNorm((144,), eps=1e-05, elementwise_affine=True)
                  (4): LayerNorm((144,), eps=1e-05, elementwise_affine=True)
                  (5): LayerNorm((144,), eps=1e-05, elementwise_affine=True)
                  (6): LayerNorm((144,), eps=1e-05, elementwise_affine=True)
                  (7): LayerNorm((144,), eps=1e-05, elementwise_affine=True)
                  (8): LayerNorm((144,), eps=1e-05, elementwise_affine=True)
                  (9): LayerNorm((144,), eps=1e-05, elementwise_affine=True)
                  (10): LayerNorm((144,), eps=1e-05, elementwise_affine=True)
                  (11): LayerNorm((144,), eps=1e-05, elementwise_affine=True)
                  (12): LayerNorm((144,), eps=1e-05, elementwise_affine=True)
                  (13): LayerNorm((144,), eps=1e-05, elementwise_affine=True)
                  (14): LayerNorm((144,), eps=1e-05, elementwise_affine=True)
                  (15): LayerNorm((144,), eps=1e-05, elementwise_affine=True)
                  (16): LayerNorm((144,), eps=1e-05, elementwise_affine=True)
                  (17): LayerNorm((144,), eps=1e-05, elementwise_affine=True)
                  (18): LayerNorm((144,), eps=1e-05, elementwise_affine=True)
                  (19): LayerNorm((144,), eps=1e-05, elementwise_affine=True)
                  (20): LayerNorm((144,), eps=1e-05, elementwise_affine=True)
                  (21): LayerNorm((144,), eps=1e-05, elementwise_affine=True)
                  (22): LayerNorm((144,), eps=1e-05, elementwise_affine=True)
                  (23): LayerNorm((144,), eps=1e-05, elementwise_affine=True)
                  (24): LayerNorm((144,), eps=1e-05, elementwise_affine=True)
                )
              )
              (fn): Attention(
                (attend): Softmax(dim=-1)
                (to_qkv): Linear(in_features=144, out_features=96, bias=False)
                (to_out): Sequential(
                  (0): Linear(in_features=32, out_features=144, bias=True)
                  (1): Dropout(p=0.0, inplace=False)
                )
              )
            )
            (1): PreNorm(
              (norm): SWLayerNorm(
                (144,), eps=1e-05, elementwise_affine=True
                (ln): ModuleList(
                  (0): LayerNorm((144,), eps=1e-05, elementwise_affine=True)
                  (1): LayerNorm((144,), eps=1e-05, elementwise_affine=True)
                  (2): LayerNorm((144,), eps=1e-05, elementwise_affine=True)
                  (3): LayerNorm((144,), eps=1e-05, elementwise_affine=True)
                  (4): LayerNorm((144,), eps=1e-05, elementwise_affine=True)
                  (5): LayerNorm((144,), eps=1e-05, elementwise_affine=True)
                  (6): LayerNorm((144,), eps=1e-05, elementwise_affine=True)
                  (7): LayerNorm((144,), eps=1e-05, elementwise_affine=True)
                  (8): LayerNorm((144,), eps=1e-05, elementwise_affine=True)
                  (9): LayerNorm((144,), eps=1e-05, elementwise_affine=True)
                  (10): LayerNorm((144,), eps=1e-05, elementwise_affine=True)
                  (11): LayerNorm((144,), eps=1e-05, elementwise_affine=True)
                  (12): LayerNorm((144,), eps=1e-05, elementwise_affine=True)
                  (13): LayerNorm((144,), eps=1e-05, elementwise_affine=True)
                  (14): LayerNorm((144,), eps=1e-05, elementwise_affine=True)
                  (15): LayerNorm((144,), eps=1e-05, elementwise_affine=True)
                  (16): LayerNorm((144,), eps=1e-05, elementwise_affine=True)
                  (17): LayerNorm((144,), eps=1e-05, elementwise_affine=True)
                  (18): LayerNorm((144,), eps=1e-05, elementwise_affine=True)
                  (19): LayerNorm((144,), eps=1e-05, elementwise_affine=True)
                  (20): LayerNorm((144,), eps=1e-05, elementwise_affine=True)
                  (21): LayerNorm((144,), eps=1e-05, elementwise_affine=True)
                  (22): LayerNorm((144,), eps=1e-05, elementwise_affine=True)
                  (23): LayerNorm((144,), eps=1e-05, elementwise_affine=True)
                  (24): LayerNorm((144,), eps=1e-05, elementwise_affine=True)
                )
              )
              (fn): FeedForward(
                (net): Sequential(
                  (0): Linear(in_features=144, out_features=288, bias=True)
                  (1): SiLU()
                  (2): Dropout(p=0.0, inplace=False)
                  (3): Linear(in_features=288, out_features=144, bias=True)
                  (4): Dropout(p=0.0, inplace=False)
                )
              )
            )
          )
          (1): ModuleList(
            (0): PreNorm(
              (norm): SWLayerNorm(
                (144,), eps=1e-05, elementwise_affine=True
                (ln): ModuleList(
                  (0): LayerNorm((144,), eps=1e-05, elementwise_affine=True)
                  (1): LayerNorm((144,), eps=1e-05, elementwise_affine=True)
                  (2): LayerNorm((144,), eps=1e-05, elementwise_affine=True)
                  (3): LayerNorm((144,), eps=1e-05, elementwise_affine=True)
                  (4): LayerNorm((144,), eps=1e-05, elementwise_affine=True)
                  (5): LayerNorm((144,), eps=1e-05, elementwise_affine=True)
                  (6): LayerNorm((144,), eps=1e-05, elementwise_affine=True)
                  (7): LayerNorm((144,), eps=1e-05, elementwise_affine=True)
                  (8): LayerNorm((144,), eps=1e-05, elementwise_affine=True)
                  (9): LayerNorm((144,), eps=1e-05, elementwise_affine=True)
                  (10): LayerNorm((144,), eps=1e-05, elementwise_affine=True)
                  (11): LayerNorm((144,), eps=1e-05, elementwise_affine=True)
                  (12): LayerNorm((144,), eps=1e-05, elementwise_affine=True)
                  (13): LayerNorm((144,), eps=1e-05, elementwise_affine=True)
                  (14): LayerNorm((144,), eps=1e-05, elementwise_affine=True)
                  (15): LayerNorm((144,), eps=1e-05, elementwise_affine=True)
                  (16): LayerNorm((144,), eps=1e-05, elementwise_affine=True)
                  (17): LayerNorm((144,), eps=1e-05, elementwise_affine=True)
                  (18): LayerNorm((144,), eps=1e-05, elementwise_affine=True)
                  (19): LayerNorm((144,), eps=1e-05, elementwise_affine=True)
                  (20): LayerNorm((144,), eps=1e-05, elementwise_affine=True)
                  (21): LayerNorm((144,), eps=1e-05, elementwise_affine=True)
                  (22): LayerNorm((144,), eps=1e-05, elementwise_affine=True)
                  (23): LayerNorm((144,), eps=1e-05, elementwise_affine=True)
                  (24): LayerNorm((144,), eps=1e-05, elementwise_affine=True)
                )
              )
              (fn): Attention(
                (attend): Softmax(dim=-1)
                (to_qkv): Linear(in_features=144, out_features=96, bias=False)
                (to_out): Sequential(
                  (0): Linear(in_features=32, out_features=144, bias=True)
                  (1): Dropout(p=0.0, inplace=False)
                )
              )
            )
            (1): PreNorm(
              (norm): SWLayerNorm(
                (144,), eps=1e-05, elementwise_affine=True
                (ln): ModuleList(
                  (0): LayerNorm((144,), eps=1e-05, elementwise_affine=True)
                  (1): LayerNorm((144,), eps=1e-05, elementwise_affine=True)
                  (2): LayerNorm((144,), eps=1e-05, elementwise_affine=True)
                  (3): LayerNorm((144,), eps=1e-05, elementwise_affine=True)
                  (4): LayerNorm((144,), eps=1e-05, elementwise_affine=True)
                  (5): LayerNorm((144,), eps=1e-05, elementwise_affine=True)
                  (6): LayerNorm((144,), eps=1e-05, elementwise_affine=True)
                  (7): LayerNorm((144,), eps=1e-05, elementwise_affine=True)
                  (8): LayerNorm((144,), eps=1e-05, elementwise_affine=True)
                  (9): LayerNorm((144,), eps=1e-05, elementwise_affine=True)
                  (10): LayerNorm((144,), eps=1e-05, elementwise_affine=True)
                  (11): LayerNorm((144,), eps=1e-05, elementwise_affine=True)
                  (12): LayerNorm((144,), eps=1e-05, elementwise_affine=True)
                  (13): LayerNorm((144,), eps=1e-05, elementwise_affine=True)
                  (14): LayerNorm((144,), eps=1e-05, elementwise_affine=True)
                  (15): LayerNorm((144,), eps=1e-05, elementwise_affine=True)
                  (16): LayerNorm((144,), eps=1e-05, elementwise_affine=True)
                  (17): LayerNorm((144,), eps=1e-05, elementwise_affine=True)
                  (18): LayerNorm((144,), eps=1e-05, elementwise_affine=True)
                  (19): LayerNorm((144,), eps=1e-05, elementwise_affine=True)
                  (20): LayerNorm((144,), eps=1e-05, elementwise_affine=True)
                  (21): LayerNorm((144,), eps=1e-05, elementwise_affine=True)
                  (22): LayerNorm((144,), eps=1e-05, elementwise_affine=True)
                  (23): LayerNorm((144,), eps=1e-05, elementwise_affine=True)
                  (24): LayerNorm((144,), eps=1e-05, elementwise_affine=True)
                )
              )
              (fn): FeedForward(
                (net): Sequential(
                  (0): Linear(in_features=144, out_features=288, bias=True)
                  (1): SiLU()
                  (2): Dropout(p=0.0, inplace=False)
                  (3): Linear(in_features=288, out_features=144, bias=True)
                  (4): Dropout(p=0.0, inplace=False)
                )
              )
            )
          )
        )
      )
      (conv3): Sequential(
        (0): Conv2d(144, 96, kernel_size=(1, 1), stride=(1, 1), bias=False)
        (1): SWBatchNorm2d(
          96, eps=1e-05, momentum=0.1, affine=True, track_running_stats=True
          (bn): ModuleList(
            (0): BatchNorm2d(96, eps=1e-05, momentum=0.1, affine=True, track_running_stats=True)
            (1): BatchNorm2d(96, eps=1e-05, momentum=0.1, affine=True, track_running_stats=True)
            (2): BatchNorm2d(96, eps=1e-05, momentum=0.1, affine=True, track_running_stats=True)
            (3): BatchNorm2d(96, eps=1e-05, momentum=0.1, affine=True, track_running_stats=True)
            (4): BatchNorm2d(96, eps=1e-05, momentum=0.1, affine=True, track_running_stats=True)
            (5): BatchNorm2d(96, eps=1e-05, momentum=0.1, affine=True, track_running_stats=True)
            (6): BatchNorm2d(96, eps=1e-05, momentum=0.1, affine=True, track_running_stats=True)
            (7): BatchNorm2d(96, eps=1e-05, momentum=0.1, affine=True, track_running_stats=True)
            (8): BatchNorm2d(96, eps=1e-05, momentum=0.1, affine=True, track_running_stats=True)
            (9): BatchNorm2d(96, eps=1e-05, momentum=0.1, affine=True, track_running_stats=True)
            (10): BatchNorm2d(96, eps=1e-05, momentum=0.1, affine=True, track_running_stats=True)
            (11): BatchNorm2d(96, eps=1e-05, momentum=0.1, affine=True, track_running_stats=True)
            (12): BatchNorm2d(96, eps=1e-05, momentum=0.1, affine=True, track_running_stats=True)
            (13): BatchNorm2d(96, eps=1e-05, momentum=0.1, affine=True, track_running_stats=True)
            (14): BatchNorm2d(96, eps=1e-05, momentum=0.1, affine=True, track_running_stats=True)
            (15): BatchNorm2d(96, eps=1e-05, momentum=0.1, affine=True, track_running_stats=True)
            (16): BatchNorm2d(96, eps=1e-05, momentum=0.1, affine=True, track_running_stats=True)
            (17): BatchNorm2d(96, eps=1e-05, momentum=0.1, affine=True, track_running_stats=True)
            (18): BatchNorm2d(96, eps=1e-05, momentum=0.1, affine=True, track_running_stats=True)
            (19): BatchNorm2d(96, eps=1e-05, momentum=0.1, affine=True, track_running_stats=True)
            (20): BatchNorm2d(96, eps=1e-05, momentum=0.1, affine=True, track_running_stats=True)
            (21): BatchNorm2d(96, eps=1e-05, momentum=0.1, affine=True, track_running_stats=True)
            (22): BatchNorm2d(96, eps=1e-05, momentum=0.1, affine=True, track_running_stats=True)
            (23): BatchNorm2d(96, eps=1e-05, momentum=0.1, affine=True, track_running_stats=True)
            (24): BatchNorm2d(96, eps=1e-05, momentum=0.1, affine=True, track_running_stats=True)
          )
        )
        (2): SiLU()
      )
      (conv4): Sequential(
        (0): Conv2d(192, 96, kernel_size=(3, 3), stride=(1, 1), padding=(1, 1), bias=False)
        (1): SWBatchNorm2d(
          96, eps=1e-05, momentum=0.1, affine=True, track_running_stats=True
          (bn): ModuleList(
            (0): BatchNorm2d(96, eps=1e-05, momentum=0.1, affine=True, track_running_stats=True)
            (1): BatchNorm2d(96, eps=1e-05, momentum=0.1, affine=True, track_running_stats=True)
            (2): BatchNorm2d(96, eps=1e-05, momentum=0.1, affine=True, track_running_stats=True)
            (3): BatchNorm2d(96, eps=1e-05, momentum=0.1, affine=True, track_running_stats=True)
            (4): BatchNorm2d(96, eps=1e-05, momentum=0.1, affine=True, track_running_stats=True)
            (5): BatchNorm2d(96, eps=1e-05, momentum=0.1, affine=True, track_running_stats=True)
            (6): BatchNorm2d(96, eps=1e-05, momentum=0.1, affine=True, track_running_stats=True)
            (7): BatchNorm2d(96, eps=1e-05, momentum=0.1, affine=True, track_running_stats=True)
            (8): BatchNorm2d(96, eps=1e-05, momentum=0.1, affine=True, track_running_stats=True)
            (9): BatchNorm2d(96, eps=1e-05, momentum=0.1, affine=True, track_running_stats=True)
            (10): BatchNorm2d(96, eps=1e-05, momentum=0.1, affine=True, track_running_stats=True)
            (11): BatchNorm2d(96, eps=1e-05, momentum=0.1, affine=True, track_running_stats=True)
            (12): BatchNorm2d(96, eps=1e-05, momentum=0.1, affine=True, track_running_stats=True)
            (13): BatchNorm2d(96, eps=1e-05, momentum=0.1, affine=True, track_running_stats=True)
            (14): BatchNorm2d(96, eps=1e-05, momentum=0.1, affine=True, track_running_stats=True)
            (15): BatchNorm2d(96, eps=1e-05, momentum=0.1, affine=True, track_running_stats=True)
            (16): BatchNorm2d(96, eps=1e-05, momentum=0.1, affine=True, track_running_stats=True)
            (17): BatchNorm2d(96, eps=1e-05, momentum=0.1, affine=True, track_running_stats=True)
            (18): BatchNorm2d(96, eps=1e-05, momentum=0.1, affine=True, track_running_stats=True)
            (19): BatchNorm2d(96, eps=1e-05, momentum=0.1, affine=True, track_running_stats=True)
            (20): BatchNorm2d(96, eps=1e-05, momentum=0.1, affine=True, track_running_stats=True)
            (21): BatchNorm2d(96, eps=1e-05, momentum=0.1, affine=True, track_running_stats=True)
            (22): BatchNorm2d(96, eps=1e-05, momentum=0.1, affine=True, track_running_stats=True)
            (23): BatchNorm2d(96, eps=1e-05, momentum=0.1, affine=True, track_running_stats=True)
            (24): BatchNorm2d(96, eps=1e-05, momentum=0.1, affine=True, track_running_stats=True)
          )
        )
        (2): SiLU()
      )
    )
    (1): MobileViTBlock(
      (conv1): Sequential(
        (0): Conv2d(128, 128, kernel_size=(3, 3), stride=(1, 1), padding=(1, 1), bias=False)
        (1): SWBatchNorm2d(
          128, eps=1e-05, momentum=0.1, affine=True, track_running_stats=True
          (bn): ModuleList(
            (0): BatchNorm2d(128, eps=1e-05, momentum=0.1, affine=True, track_running_stats=True)
            (1): BatchNorm2d(128, eps=1e-05, momentum=0.1, affine=True, track_running_stats=True)
            (2): BatchNorm2d(128, eps=1e-05, momentum=0.1, affine=True, track_running_stats=True)
            (3): BatchNorm2d(128, eps=1e-05, momentum=0.1, affine=True, track_running_stats=True)
            (4): BatchNorm2d(128, eps=1e-05, momentum=0.1, affine=True, track_running_stats=True)
            (5): BatchNorm2d(128, eps=1e-05, momentum=0.1, affine=True, track_running_stats=True)
            (6): BatchNorm2d(128, eps=1e-05, momentum=0.1, affine=True, track_running_stats=True)
            (7): BatchNorm2d(128, eps=1e-05, momentum=0.1, affine=True, track_running_stats=True)
            (8): BatchNorm2d(128, eps=1e-05, momentum=0.1, affine=True, track_running_stats=True)
            (9): BatchNorm2d(128, eps=1e-05, momentum=0.1, affine=True, track_running_stats=True)
            (10): BatchNorm2d(128, eps=1e-05, momentum=0.1, affine=True, track_running_stats=True)
            (11): BatchNorm2d(128, eps=1e-05, momentum=0.1, affine=True, track_running_stats=True)
            (12): BatchNorm2d(128, eps=1e-05, momentum=0.1, affine=True, track_running_stats=True)
            (13): BatchNorm2d(128, eps=1e-05, momentum=0.1, affine=True, track_running_stats=True)
            (14): BatchNorm2d(128, eps=1e-05, momentum=0.1, affine=True, track_running_stats=True)
            (15): BatchNorm2d(128, eps=1e-05, momentum=0.1, affine=True, track_running_stats=True)
            (16): BatchNorm2d(128, eps=1e-05, momentum=0.1, affine=True, track_running_stats=True)
            (17): BatchNorm2d(128, eps=1e-05, momentum=0.1, affine=True, track_running_stats=True)
            (18): BatchNorm2d(128, eps=1e-05, momentum=0.1, affine=True, track_running_stats=True)
            (19): BatchNorm2d(128, eps=1e-05, momentum=0.1, affine=True, track_running_stats=True)
            (20): BatchNorm2d(128, eps=1e-05, momentum=0.1, affine=True, track_running_stats=True)
            (21): BatchNorm2d(128, eps=1e-05, momentum=0.1, affine=True, track_running_stats=True)
            (22): BatchNorm2d(128, eps=1e-05, momentum=0.1, affine=True, track_running_stats=True)
            (23): BatchNorm2d(128, eps=1e-05, momentum=0.1, affine=True, track_running_stats=True)
            (24): BatchNorm2d(128, eps=1e-05, momentum=0.1, affine=True, track_running_stats=True)
          )
        )
        (2): SiLU()
      )
      (conv2): Sequential(
        (0): Conv2d(128, 192, kernel_size=(1, 1), stride=(1, 1), bias=False)
        (1): SWBatchNorm2d(
          192, eps=1e-05, momentum=0.1, affine=True, track_running_stats=True
          (bn): ModuleList(
            (0): BatchNorm2d(192, eps=1e-05, momentum=0.1, affine=True, track_running_stats=True)
            (1): BatchNorm2d(192, eps=1e-05, momentum=0.1, affine=True, track_running_stats=True)
            (2): BatchNorm2d(192, eps=1e-05, momentum=0.1, affine=True, track_running_stats=True)
            (3): BatchNorm2d(192, eps=1e-05, momentum=0.1, affine=True, track_running_stats=True)
            (4): BatchNorm2d(192, eps=1e-05, momentum=0.1, affine=True, track_running_stats=True)
            (5): BatchNorm2d(192, eps=1e-05, momentum=0.1, affine=True, track_running_stats=True)
            (6): BatchNorm2d(192, eps=1e-05, momentum=0.1, affine=True, track_running_stats=True)
            (7): BatchNorm2d(192, eps=1e-05, momentum=0.1, affine=True, track_running_stats=True)
            (8): BatchNorm2d(192, eps=1e-05, momentum=0.1, affine=True, track_running_stats=True)
            (9): BatchNorm2d(192, eps=1e-05, momentum=0.1, affine=True, track_running_stats=True)
            (10): BatchNorm2d(192, eps=1e-05, momentum=0.1, affine=True, track_running_stats=True)
            (11): BatchNorm2d(192, eps=1e-05, momentum=0.1, affine=True, track_running_stats=True)
            (12): BatchNorm2d(192, eps=1e-05, momentum=0.1, affine=True, track_running_stats=True)
            (13): BatchNorm2d(192, eps=1e-05, momentum=0.1, affine=True, track_running_stats=True)
            (14): BatchNorm2d(192, eps=1e-05, momentum=0.1, affine=True, track_running_stats=True)
            (15): BatchNorm2d(192, eps=1e-05, momentum=0.1, affine=True, track_running_stats=True)
            (16): BatchNorm2d(192, eps=1e-05, momentum=0.1, affine=True, track_running_stats=True)
            (17): BatchNorm2d(192, eps=1e-05, momentum=0.1, affine=True, track_running_stats=True)
            (18): BatchNorm2d(192, eps=1e-05, momentum=0.1, affine=True, track_running_stats=True)
            (19): BatchNorm2d(192, eps=1e-05, momentum=0.1, affine=True, track_running_stats=True)
            (20): BatchNorm2d(192, eps=1e-05, momentum=0.1, affine=True, track_running_stats=True)
            (21): BatchNorm2d(192, eps=1e-05, momentum=0.1, affine=True, track_running_stats=True)
            (22): BatchNorm2d(192, eps=1e-05, momentum=0.1, affine=True, track_running_stats=True)
            (23): BatchNorm2d(192, eps=1e-05, momentum=0.1, affine=True, track_running_stats=True)
            (24): BatchNorm2d(192, eps=1e-05, momentum=0.1, affine=True, track_running_stats=True)
          )
        )
        (2): SiLU()
      )
      (transformer): Transformer(
        (layers): ModuleList(
          (0): ModuleList(
            (0): PreNorm(
              (norm): SWLayerNorm(
                (192,), eps=1e-05, elementwise_affine=True
                (ln): ModuleList(
                  (0): LayerNorm((192,), eps=1e-05, elementwise_affine=True)
                  (1): LayerNorm((192,), eps=1e-05, elementwise_affine=True)
                  (2): LayerNorm((192,), eps=1e-05, elementwise_affine=True)
                  (3): LayerNorm((192,), eps=1e-05, elementwise_affine=True)
                  (4): LayerNorm((192,), eps=1e-05, elementwise_affine=True)
                  (5): LayerNorm((192,), eps=1e-05, elementwise_affine=True)
                  (6): LayerNorm((192,), eps=1e-05, elementwise_affine=True)
                  (7): LayerNorm((192,), eps=1e-05, elementwise_affine=True)
                  (8): LayerNorm((192,), eps=1e-05, elementwise_affine=True)
                  (9): LayerNorm((192,), eps=1e-05, elementwise_affine=True)
                  (10): LayerNorm((192,), eps=1e-05, elementwise_affine=True)
                  (11): LayerNorm((192,), eps=1e-05, elementwise_affine=True)
                  (12): LayerNorm((192,), eps=1e-05, elementwise_affine=True)
                  (13): LayerNorm((192,), eps=1e-05, elementwise_affine=True)
                  (14): LayerNorm((192,), eps=1e-05, elementwise_affine=True)
                  (15): LayerNorm((192,), eps=1e-05, elementwise_affine=True)
                  (16): LayerNorm((192,), eps=1e-05, elementwise_affine=True)
                  (17): LayerNorm((192,), eps=1e-05, elementwise_affine=True)
                  (18): LayerNorm((192,), eps=1e-05, elementwise_affine=True)
                  (19): LayerNorm((192,), eps=1e-05, elementwise_affine=True)
                  (20): LayerNorm((192,), eps=1e-05, elementwise_affine=True)
                  (21): LayerNorm((192,), eps=1e-05, elementwise_affine=True)
                  (22): LayerNorm((192,), eps=1e-05, elementwise_affine=True)
                  (23): LayerNorm((192,), eps=1e-05, elementwise_affine=True)
                  (24): LayerNorm((192,), eps=1e-05, elementwise_affine=True)
                )
              )
              (fn): Attention(
                (attend): Softmax(dim=-1)
                (to_qkv): Linear(in_features=192, out_features=96, bias=False)
                (to_out): Sequential(
                  (0): Linear(in_features=32, out_features=192, bias=True)
                  (1): Dropout(p=0.0, inplace=False)
                )
              )
            )
            (1): PreNorm(
              (norm): SWLayerNorm(
                (192,), eps=1e-05, elementwise_affine=True
                (ln): ModuleList(
                  (0): LayerNorm((192,), eps=1e-05, elementwise_affine=True)
                  (1): LayerNorm((192,), eps=1e-05, elementwise_affine=True)
                  (2): LayerNorm((192,), eps=1e-05, elementwise_affine=True)
                  (3): LayerNorm((192,), eps=1e-05, elementwise_affine=True)
                  (4): LayerNorm((192,), eps=1e-05, elementwise_affine=True)
                  (5): LayerNorm((192,), eps=1e-05, elementwise_affine=True)
                  (6): LayerNorm((192,), eps=1e-05, elementwise_affine=True)
                  (7): LayerNorm((192,), eps=1e-05, elementwise_affine=True)
                  (8): LayerNorm((192,), eps=1e-05, elementwise_affine=True)
                  (9): LayerNorm((192,), eps=1e-05, elementwise_affine=True)
                  (10): LayerNorm((192,), eps=1e-05, elementwise_affine=True)
                  (11): LayerNorm((192,), eps=1e-05, elementwise_affine=True)
                  (12): LayerNorm((192,), eps=1e-05, elementwise_affine=True)
                  (13): LayerNorm((192,), eps=1e-05, elementwise_affine=True)
                  (14): LayerNorm((192,), eps=1e-05, elementwise_affine=True)
                  (15): LayerNorm((192,), eps=1e-05, elementwise_affine=True)
                  (16): LayerNorm((192,), eps=1e-05, elementwise_affine=True)
                  (17): LayerNorm((192,), eps=1e-05, elementwise_affine=True)
                  (18): LayerNorm((192,), eps=1e-05, elementwise_affine=True)
                  (19): LayerNorm((192,), eps=1e-05, elementwise_affine=True)
                  (20): LayerNorm((192,), eps=1e-05, elementwise_affine=True)
                  (21): LayerNorm((192,), eps=1e-05, elementwise_affine=True)
                  (22): LayerNorm((192,), eps=1e-05, elementwise_affine=True)
                  (23): LayerNorm((192,), eps=1e-05, elementwise_affine=True)
                  (24): LayerNorm((192,), eps=1e-05, elementwise_affine=True)
                )
              )
              (fn): FeedForward(
                (net): Sequential(
                  (0): Linear(in_features=192, out_features=768, bias=True)
                  (1): SiLU()
                  (2): Dropout(p=0.0, inplace=False)
                  (3): Linear(in_features=768, out_features=192, bias=True)
                  (4): Dropout(p=0.0, inplace=False)
                )
              )
            )
          )
          (1): ModuleList(
            (0): PreNorm(
              (norm): SWLayerNorm(
                (192,), eps=1e-05, elementwise_affine=True
                (ln): ModuleList(
                  (0): LayerNorm((192,), eps=1e-05, elementwise_affine=True)
                  (1): LayerNorm((192,), eps=1e-05, elementwise_affine=True)
                  (2): LayerNorm((192,), eps=1e-05, elementwise_affine=True)
                  (3): LayerNorm((192,), eps=1e-05, elementwise_affine=True)
                  (4): LayerNorm((192,), eps=1e-05, elementwise_affine=True)
                  (5): LayerNorm((192,), eps=1e-05, elementwise_affine=True)
                  (6): LayerNorm((192,), eps=1e-05, elementwise_affine=True)
                  (7): LayerNorm((192,), eps=1e-05, elementwise_affine=True)
                  (8): LayerNorm((192,), eps=1e-05, elementwise_affine=True)
                  (9): LayerNorm((192,), eps=1e-05, elementwise_affine=True)
                  (10): LayerNorm((192,), eps=1e-05, elementwise_affine=True)
                  (11): LayerNorm((192,), eps=1e-05, elementwise_affine=True)
                  (12): LayerNorm((192,), eps=1e-05, elementwise_affine=True)
                  (13): LayerNorm((192,), eps=1e-05, elementwise_affine=True)
                  (14): LayerNorm((192,), eps=1e-05, elementwise_affine=True)
                  (15): LayerNorm((192,), eps=1e-05, elementwise_affine=True)
                  (16): LayerNorm((192,), eps=1e-05, elementwise_affine=True)
                  (17): LayerNorm((192,), eps=1e-05, elementwise_affine=True)
                  (18): LayerNorm((192,), eps=1e-05, elementwise_affine=True)
                  (19): LayerNorm((192,), eps=1e-05, elementwise_affine=True)
                  (20): LayerNorm((192,), eps=1e-05, elementwise_affine=True)
                  (21): LayerNorm((192,), eps=1e-05, elementwise_affine=True)
                  (22): LayerNorm((192,), eps=1e-05, elementwise_affine=True)
                  (23): LayerNorm((192,), eps=1e-05, elementwise_affine=True)
                  (24): LayerNorm((192,), eps=1e-05, elementwise_affine=True)
                )
              )
              (fn): Attention(
                (attend): Softmax(dim=-1)
                (to_qkv): Linear(in_features=192, out_features=96, bias=False)
                (to_out): Sequential(
                  (0): Linear(in_features=32, out_features=192, bias=True)
                  (1): Dropout(p=0.0, inplace=False)
                )
              )
            )
            (1): PreNorm(
              (norm): SWLayerNorm(
                (192,), eps=1e-05, elementwise_affine=True
                (ln): ModuleList(
                  (0): LayerNorm((192,), eps=1e-05, elementwise_affine=True)
                  (1): LayerNorm((192,), eps=1e-05, elementwise_affine=True)
                  (2): LayerNorm((192,), eps=1e-05, elementwise_affine=True)
                  (3): LayerNorm((192,), eps=1e-05, elementwise_affine=True)
                  (4): LayerNorm((192,), eps=1e-05, elementwise_affine=True)
                  (5): LayerNorm((192,), eps=1e-05, elementwise_affine=True)
                  (6): LayerNorm((192,), eps=1e-05, elementwise_affine=True)
                  (7): LayerNorm((192,), eps=1e-05, elementwise_affine=True)
                  (8): LayerNorm((192,), eps=1e-05, elementwise_affine=True)
                  (9): LayerNorm((192,), eps=1e-05, elementwise_affine=True)
                  (10): LayerNorm((192,), eps=1e-05, elementwise_affine=True)
                  (11): LayerNorm((192,), eps=1e-05, elementwise_affine=True)
                  (12): LayerNorm((192,), eps=1e-05, elementwise_affine=True)
                  (13): LayerNorm((192,), eps=1e-05, elementwise_affine=True)
                  (14): LayerNorm((192,), eps=1e-05, elementwise_affine=True)
                  (15): LayerNorm((192,), eps=1e-05, elementwise_affine=True)
                  (16): LayerNorm((192,), eps=1e-05, elementwise_affine=True)
                  (17): LayerNorm((192,), eps=1e-05, elementwise_affine=True)
                  (18): LayerNorm((192,), eps=1e-05, elementwise_affine=True)
                  (19): LayerNorm((192,), eps=1e-05, elementwise_affine=True)
                  (20): LayerNorm((192,), eps=1e-05, elementwise_affine=True)
                  (21): LayerNorm((192,), eps=1e-05, elementwise_affine=True)
                  (22): LayerNorm((192,), eps=1e-05, elementwise_affine=True)
                  (23): LayerNorm((192,), eps=1e-05, elementwise_affine=True)
                  (24): LayerNorm((192,), eps=1e-05, elementwise_affine=True)
                )
              )
              (fn): FeedForward(
                (net): Sequential(
                  (0): Linear(in_features=192, out_features=768, bias=True)
                  (1): SiLU()
                  (2): Dropout(p=0.0, inplace=False)
                  (3): Linear(in_features=768, out_features=192, bias=True)
                  (4): Dropout(p=0.0, inplace=False)
                )
              )
            )
          )
          (2): ModuleList(
            (0): PreNorm(
              (norm): SWLayerNorm(
                (192,), eps=1e-05, elementwise_affine=True
                (ln): ModuleList(
                  (0): LayerNorm((192,), eps=1e-05, elementwise_affine=True)
                  (1): LayerNorm((192,), eps=1e-05, elementwise_affine=True)
                  (2): LayerNorm((192,), eps=1e-05, elementwise_affine=True)
                  (3): LayerNorm((192,), eps=1e-05, elementwise_affine=True)
                  (4): LayerNorm((192,), eps=1e-05, elementwise_affine=True)
                  (5): LayerNorm((192,), eps=1e-05, elementwise_affine=True)
                  (6): LayerNorm((192,), eps=1e-05, elementwise_affine=True)
                  (7): LayerNorm((192,), eps=1e-05, elementwise_affine=True)
                  (8): LayerNorm((192,), eps=1e-05, elementwise_affine=True)
                  (9): LayerNorm((192,), eps=1e-05, elementwise_affine=True)
                  (10): LayerNorm((192,), eps=1e-05, elementwise_affine=True)
                  (11): LayerNorm((192,), eps=1e-05, elementwise_affine=True)
                  (12): LayerNorm((192,), eps=1e-05, elementwise_affine=True)
                  (13): LayerNorm((192,), eps=1e-05, elementwise_affine=True)
                  (14): LayerNorm((192,), eps=1e-05, elementwise_affine=True)
                  (15): LayerNorm((192,), eps=1e-05, elementwise_affine=True)
                  (16): LayerNorm((192,), eps=1e-05, elementwise_affine=True)
                  (17): LayerNorm((192,), eps=1e-05, elementwise_affine=True)
                  (18): LayerNorm((192,), eps=1e-05, elementwise_affine=True)
                  (19): LayerNorm((192,), eps=1e-05, elementwise_affine=True)
                  (20): LayerNorm((192,), eps=1e-05, elementwise_affine=True)
                  (21): LayerNorm((192,), eps=1e-05, elementwise_affine=True)
                  (22): LayerNorm((192,), eps=1e-05, elementwise_affine=True)
                  (23): LayerNorm((192,), eps=1e-05, elementwise_affine=True)
                  (24): LayerNorm((192,), eps=1e-05, elementwise_affine=True)
                )
              )
              (fn): Attention(
                (attend): Softmax(dim=-1)
                (to_qkv): Linear(in_features=192, out_features=96, bias=False)
                (to_out): Sequential(
                  (0): Linear(in_features=32, out_features=192, bias=True)
                  (1): Dropout(p=0.0, inplace=False)
                )
              )
            )
            (1): PreNorm(
              (norm): SWLayerNorm(
                (192,), eps=1e-05, elementwise_affine=True
                (ln): ModuleList(
                  (0): LayerNorm((192,), eps=1e-05, elementwise_affine=True)
                  (1): LayerNorm((192,), eps=1e-05, elementwise_affine=True)
                  (2): LayerNorm((192,), eps=1e-05, elementwise_affine=True)
                  (3): LayerNorm((192,), eps=1e-05, elementwise_affine=True)
                  (4): LayerNorm((192,), eps=1e-05, elementwise_affine=True)
                  (5): LayerNorm((192,), eps=1e-05, elementwise_affine=True)
                  (6): LayerNorm((192,), eps=1e-05, elementwise_affine=True)
                  (7): LayerNorm((192,), eps=1e-05, elementwise_affine=True)
                  (8): LayerNorm((192,), eps=1e-05, elementwise_affine=True)
                  (9): LayerNorm((192,), eps=1e-05, elementwise_affine=True)
                  (10): LayerNorm((192,), eps=1e-05, elementwise_affine=True)
                  (11): LayerNorm((192,), eps=1e-05, elementwise_affine=True)
                  (12): LayerNorm((192,), eps=1e-05, elementwise_affine=True)
                  (13): LayerNorm((192,), eps=1e-05, elementwise_affine=True)
                  (14): LayerNorm((192,), eps=1e-05, elementwise_affine=True)
                  (15): LayerNorm((192,), eps=1e-05, elementwise_affine=True)
                  (16): LayerNorm((192,), eps=1e-05, elementwise_affine=True)
                  (17): LayerNorm((192,), eps=1e-05, elementwise_affine=True)
                  (18): LayerNorm((192,), eps=1e-05, elementwise_affine=True)
                  (19): LayerNorm((192,), eps=1e-05, elementwise_affine=True)
                  (20): LayerNorm((192,), eps=1e-05, elementwise_affine=True)
                  (21): LayerNorm((192,), eps=1e-05, elementwise_affine=True)
                  (22): LayerNorm((192,), eps=1e-05, elementwise_affine=True)
                  (23): LayerNorm((192,), eps=1e-05, elementwise_affine=True)
                  (24): LayerNorm((192,), eps=1e-05, elementwise_affine=True)
                )
              )
              (fn): FeedForward(
                (net): Sequential(
                  (0): Linear(in_features=192, out_features=768, bias=True)
                  (1): SiLU()
                  (2): Dropout(p=0.0, inplace=False)
                  (3): Linear(in_features=768, out_features=192, bias=True)
                  (4): Dropout(p=0.0, inplace=False)
                )
              )
            )
          )
          (3): ModuleList(
            (0): PreNorm(
              (norm): SWLayerNorm(
                (192,), eps=1e-05, elementwise_affine=True
                (ln): ModuleList(
                  (0): LayerNorm((192,), eps=1e-05, elementwise_affine=True)
                  (1): LayerNorm((192,), eps=1e-05, elementwise_affine=True)
                  (2): LayerNorm((192,), eps=1e-05, elementwise_affine=True)
                  (3): LayerNorm((192,), eps=1e-05, elementwise_affine=True)
                  (4): LayerNorm((192,), eps=1e-05, elementwise_affine=True)
                  (5): LayerNorm((192,), eps=1e-05, elementwise_affine=True)
                  (6): LayerNorm((192,), eps=1e-05, elementwise_affine=True)
                  (7): LayerNorm((192,), eps=1e-05, elementwise_affine=True)
                  (8): LayerNorm((192,), eps=1e-05, elementwise_affine=True)
                  (9): LayerNorm((192,), eps=1e-05, elementwise_affine=True)
                  (10): LayerNorm((192,), eps=1e-05, elementwise_affine=True)
                  (11): LayerNorm((192,), eps=1e-05, elementwise_affine=True)
                  (12): LayerNorm((192,), eps=1e-05, elementwise_affine=True)
                  (13): LayerNorm((192,), eps=1e-05, elementwise_affine=True)
                  (14): LayerNorm((192,), eps=1e-05, elementwise_affine=True)
                  (15): LayerNorm((192,), eps=1e-05, elementwise_affine=True)
                  (16): LayerNorm((192,), eps=1e-05, elementwise_affine=True)
                  (17): LayerNorm((192,), eps=1e-05, elementwise_affine=True)
                  (18): LayerNorm((192,), eps=1e-05, elementwise_affine=True)
                  (19): LayerNorm((192,), eps=1e-05, elementwise_affine=True)
                  (20): LayerNorm((192,), eps=1e-05, elementwise_affine=True)
                  (21): LayerNorm((192,), eps=1e-05, elementwise_affine=True)
                  (22): LayerNorm((192,), eps=1e-05, elementwise_affine=True)
                  (23): LayerNorm((192,), eps=1e-05, elementwise_affine=True)
                  (24): LayerNorm((192,), eps=1e-05, elementwise_affine=True)
                )
              )
              (fn): Attention(
                (attend): Softmax(dim=-1)
                (to_qkv): Linear(in_features=192, out_features=96, bias=False)
                (to_out): Sequential(
                  (0): Linear(in_features=32, out_features=192, bias=True)
                  (1): Dropout(p=0.0, inplace=False)
                )
              )
            )
            (1): PreNorm(
              (norm): SWLayerNorm(
                (192,), eps=1e-05, elementwise_affine=True
                (ln): ModuleList(
                  (0): LayerNorm((192,), eps=1e-05, elementwise_affine=True)
                  (1): LayerNorm((192,), eps=1e-05, elementwise_affine=True)
                  (2): LayerNorm((192,), eps=1e-05, elementwise_affine=True)
                  (3): LayerNorm((192,), eps=1e-05, elementwise_affine=True)
                  (4): LayerNorm((192,), eps=1e-05, elementwise_affine=True)
                  (5): LayerNorm((192,), eps=1e-05, elementwise_affine=True)
                  (6): LayerNorm((192,), eps=1e-05, elementwise_affine=True)
                  (7): LayerNorm((192,), eps=1e-05, elementwise_affine=True)
                  (8): LayerNorm((192,), eps=1e-05, elementwise_affine=True)
                  (9): LayerNorm((192,), eps=1e-05, elementwise_affine=True)
                  (10): LayerNorm((192,), eps=1e-05, elementwise_affine=True)
                  (11): LayerNorm((192,), eps=1e-05, elementwise_affine=True)
                  (12): LayerNorm((192,), eps=1e-05, elementwise_affine=True)
                  (13): LayerNorm((192,), eps=1e-05, elementwise_affine=True)
                  (14): LayerNorm((192,), eps=1e-05, elementwise_affine=True)
                  (15): LayerNorm((192,), eps=1e-05, elementwise_affine=True)
                  (16): LayerNorm((192,), eps=1e-05, elementwise_affine=True)
                  (17): LayerNorm((192,), eps=1e-05, elementwise_affine=True)
                  (18): LayerNorm((192,), eps=1e-05, elementwise_affine=True)
                  (19): LayerNorm((192,), eps=1e-05, elementwise_affine=True)
                  (20): LayerNorm((192,), eps=1e-05, elementwise_affine=True)
                  (21): LayerNorm((192,), eps=1e-05, elementwise_affine=True)
                  (22): LayerNorm((192,), eps=1e-05, elementwise_affine=True)
                  (23): LayerNorm((192,), eps=1e-05, elementwise_affine=True)
                  (24): LayerNorm((192,), eps=1e-05, elementwise_affine=True)
                )
              )
              (fn): FeedForward(
                (net): Sequential(
                  (0): Linear(in_features=192, out_features=768, bias=True)
                  (1): SiLU()
                  (2): Dropout(p=0.0, inplace=False)
                  (3): Linear(in_features=768, out_features=192, bias=True)
                  (4): Dropout(p=0.0, inplace=False)
                )
              )
            )
          )
        )
      )
      (conv3): Sequential(
        (0): Conv2d(192, 128, kernel_size=(1, 1), stride=(1, 1), bias=False)
        (1): SWBatchNorm2d(
          128, eps=1e-05, momentum=0.1, affine=True, track_running_stats=True
          (bn): ModuleList(
            (0): BatchNorm2d(128, eps=1e-05, momentum=0.1, affine=True, track_running_stats=True)
            (1): BatchNorm2d(128, eps=1e-05, momentum=0.1, affine=True, track_running_stats=True)
            (2): BatchNorm2d(128, eps=1e-05, momentum=0.1, affine=True, track_running_stats=True)
            (3): BatchNorm2d(128, eps=1e-05, momentum=0.1, affine=True, track_running_stats=True)
            (4): BatchNorm2d(128, eps=1e-05, momentum=0.1, affine=True, track_running_stats=True)
            (5): BatchNorm2d(128, eps=1e-05, momentum=0.1, affine=True, track_running_stats=True)
            (6): BatchNorm2d(128, eps=1e-05, momentum=0.1, affine=True, track_running_stats=True)
            (7): BatchNorm2d(128, eps=1e-05, momentum=0.1, affine=True, track_running_stats=True)
            (8): BatchNorm2d(128, eps=1e-05, momentum=0.1, affine=True, track_running_stats=True)
            (9): BatchNorm2d(128, eps=1e-05, momentum=0.1, affine=True, track_running_stats=True)
            (10): BatchNorm2d(128, eps=1e-05, momentum=0.1, affine=True, track_running_stats=True)
            (11): BatchNorm2d(128, eps=1e-05, momentum=0.1, affine=True, track_running_stats=True)
            (12): BatchNorm2d(128, eps=1e-05, momentum=0.1, affine=True, track_running_stats=True)
            (13): BatchNorm2d(128, eps=1e-05, momentum=0.1, affine=True, track_running_stats=True)
            (14): BatchNorm2d(128, eps=1e-05, momentum=0.1, affine=True, track_running_stats=True)
            (15): BatchNorm2d(128, eps=1e-05, momentum=0.1, affine=True, track_running_stats=True)
            (16): BatchNorm2d(128, eps=1e-05, momentum=0.1, affine=True, track_running_stats=True)
            (17): BatchNorm2d(128, eps=1e-05, momentum=0.1, affine=True, track_running_stats=True)
            (18): BatchNorm2d(128, eps=1e-05, momentum=0.1, affine=True, track_running_stats=True)
            (19): BatchNorm2d(128, eps=1e-05, momentum=0.1, affine=True, track_running_stats=True)
            (20): BatchNorm2d(128, eps=1e-05, momentum=0.1, affine=True, track_running_stats=True)
            (21): BatchNorm2d(128, eps=1e-05, momentum=0.1, affine=True, track_running_stats=True)
            (22): BatchNorm2d(128, eps=1e-05, momentum=0.1, affine=True, track_running_stats=True)
            (23): BatchNorm2d(128, eps=1e-05, momentum=0.1, affine=True, track_running_stats=True)
            (24): BatchNorm2d(128, eps=1e-05, momentum=0.1, affine=True, track_running_stats=True)
          )
        )
        (2): SiLU()
      )
      (conv4): Sequential(
        (0): Conv2d(256, 128, kernel_size=(3, 3), stride=(1, 1), padding=(1, 1), bias=False)
        (1): SWBatchNorm2d(
          128, eps=1e-05, momentum=0.1, affine=True, track_running_stats=True
          (bn): ModuleList(
            (0): BatchNorm2d(128, eps=1e-05, momentum=0.1, affine=True, track_running_stats=True)
            (1): BatchNorm2d(128, eps=1e-05, momentum=0.1, affine=True, track_running_stats=True)
            (2): BatchNorm2d(128, eps=1e-05, momentum=0.1, affine=True, track_running_stats=True)
            (3): BatchNorm2d(128, eps=1e-05, momentum=0.1, affine=True, track_running_stats=True)
            (4): BatchNorm2d(128, eps=1e-05, momentum=0.1, affine=True, track_running_stats=True)
            (5): BatchNorm2d(128, eps=1e-05, momentum=0.1, affine=True, track_running_stats=True)
            (6): BatchNorm2d(128, eps=1e-05, momentum=0.1, affine=True, track_running_stats=True)
            (7): BatchNorm2d(128, eps=1e-05, momentum=0.1, affine=True, track_running_stats=True)
            (8): BatchNorm2d(128, eps=1e-05, momentum=0.1, affine=True, track_running_stats=True)
            (9): BatchNorm2d(128, eps=1e-05, momentum=0.1, affine=True, track_running_stats=True)
            (10): BatchNorm2d(128, eps=1e-05, momentum=0.1, affine=True, track_running_stats=True)
            (11): BatchNorm2d(128, eps=1e-05, momentum=0.1, affine=True, track_running_stats=True)
            (12): BatchNorm2d(128, eps=1e-05, momentum=0.1, affine=True, track_running_stats=True)
            (13): BatchNorm2d(128, eps=1e-05, momentum=0.1, affine=True, track_running_stats=True)
            (14): BatchNorm2d(128, eps=1e-05, momentum=0.1, affine=True, track_running_stats=True)
            (15): BatchNorm2d(128, eps=1e-05, momentum=0.1, affine=True, track_running_stats=True)
            (16): BatchNorm2d(128, eps=1e-05, momentum=0.1, affine=True, track_running_stats=True)
            (17): BatchNorm2d(128, eps=1e-05, momentum=0.1, affine=True, track_running_stats=True)
            (18): BatchNorm2d(128, eps=1e-05, momentum=0.1, affine=True, track_running_stats=True)
            (19): BatchNorm2d(128, eps=1e-05, momentum=0.1, affine=True, track_running_stats=True)
            (20): BatchNorm2d(128, eps=1e-05, momentum=0.1, affine=True, track_running_stats=True)
            (21): BatchNorm2d(128, eps=1e-05, momentum=0.1, affine=True, track_running_stats=True)
            (22): BatchNorm2d(128, eps=1e-05, momentum=0.1, affine=True, track_running_stats=True)
            (23): BatchNorm2d(128, eps=1e-05, momentum=0.1, affine=True, track_running_stats=True)
            (24): BatchNorm2d(128, eps=1e-05, momentum=0.1, affine=True, track_running_stats=True)
          )
        )
        (2): SiLU()
      )
    )
    (2): MobileViTBlock(
      (conv1): Sequential(
        (0): Conv2d(160, 160, kernel_size=(3, 3), stride=(1, 1), padding=(1, 1), bias=False)
        (1): SWBatchNorm2d(
          160, eps=1e-05, momentum=0.1, affine=True, track_running_stats=True
          (bn): ModuleList(
            (0): BatchNorm2d(160, eps=1e-05, momentum=0.1, affine=True, track_running_stats=True)
            (1): BatchNorm2d(160, eps=1e-05, momentum=0.1, affine=True, track_running_stats=True)
            (2): BatchNorm2d(160, eps=1e-05, momentum=0.1, affine=True, track_running_stats=True)
            (3): BatchNorm2d(160, eps=1e-05, momentum=0.1, affine=True, track_running_stats=True)
            (4): BatchNorm2d(160, eps=1e-05, momentum=0.1, affine=True, track_running_stats=True)
            (5): BatchNorm2d(160, eps=1e-05, momentum=0.1, affine=True, track_running_stats=True)
            (6): BatchNorm2d(160, eps=1e-05, momentum=0.1, affine=True, track_running_stats=True)
            (7): BatchNorm2d(160, eps=1e-05, momentum=0.1, affine=True, track_running_stats=True)
            (8): BatchNorm2d(160, eps=1e-05, momentum=0.1, affine=True, track_running_stats=True)
            (9): BatchNorm2d(160, eps=1e-05, momentum=0.1, affine=True, track_running_stats=True)
            (10): BatchNorm2d(160, eps=1e-05, momentum=0.1, affine=True, track_running_stats=True)
            (11): BatchNorm2d(160, eps=1e-05, momentum=0.1, affine=True, track_running_stats=True)
            (12): BatchNorm2d(160, eps=1e-05, momentum=0.1, affine=True, track_running_stats=True)
            (13): BatchNorm2d(160, eps=1e-05, momentum=0.1, affine=True, track_running_stats=True)
            (14): BatchNorm2d(160, eps=1e-05, momentum=0.1, affine=True, track_running_stats=True)
            (15): BatchNorm2d(160, eps=1e-05, momentum=0.1, affine=True, track_running_stats=True)
            (16): BatchNorm2d(160, eps=1e-05, momentum=0.1, affine=True, track_running_stats=True)
            (17): BatchNorm2d(160, eps=1e-05, momentum=0.1, affine=True, track_running_stats=True)
            (18): BatchNorm2d(160, eps=1e-05, momentum=0.1, affine=True, track_running_stats=True)
            (19): BatchNorm2d(160, eps=1e-05, momentum=0.1, affine=True, track_running_stats=True)
            (20): BatchNorm2d(160, eps=1e-05, momentum=0.1, affine=True, track_running_stats=True)
            (21): BatchNorm2d(160, eps=1e-05, momentum=0.1, affine=True, track_running_stats=True)
            (22): BatchNorm2d(160, eps=1e-05, momentum=0.1, affine=True, track_running_stats=True)
            (23): BatchNorm2d(160, eps=1e-05, momentum=0.1, affine=True, track_running_stats=True)
            (24): BatchNorm2d(160, eps=1e-05, momentum=0.1, affine=True, track_running_stats=True)
          )
        )
        (2): SiLU()
      )
      (conv2): Sequential(
        (0): Conv2d(160, 240, kernel_size=(1, 1), stride=(1, 1), bias=False)
        (1): SWBatchNorm2d(
          240, eps=1e-05, momentum=0.1, affine=True, track_running_stats=True
          (bn): ModuleList(
            (0): BatchNorm2d(240, eps=1e-05, momentum=0.1, affine=True, track_running_stats=True)
            (1): BatchNorm2d(240, eps=1e-05, momentum=0.1, affine=True, track_running_stats=True)
            (2): BatchNorm2d(240, eps=1e-05, momentum=0.1, affine=True, track_running_stats=True)
            (3): BatchNorm2d(240, eps=1e-05, momentum=0.1, affine=True, track_running_stats=True)
            (4): BatchNorm2d(240, eps=1e-05, momentum=0.1, affine=True, track_running_stats=True)
            (5): BatchNorm2d(240, eps=1e-05, momentum=0.1, affine=True, track_running_stats=True)
            (6): BatchNorm2d(240, eps=1e-05, momentum=0.1, affine=True, track_running_stats=True)
            (7): BatchNorm2d(240, eps=1e-05, momentum=0.1, affine=True, track_running_stats=True)
            (8): BatchNorm2d(240, eps=1e-05, momentum=0.1, affine=True, track_running_stats=True)
            (9): BatchNorm2d(240, eps=1e-05, momentum=0.1, affine=True, track_running_stats=True)
            (10): BatchNorm2d(240, eps=1e-05, momentum=0.1, affine=True, track_running_stats=True)
            (11): BatchNorm2d(240, eps=1e-05, momentum=0.1, affine=True, track_running_stats=True)
            (12): BatchNorm2d(240, eps=1e-05, momentum=0.1, affine=True, track_running_stats=True)
            (13): BatchNorm2d(240, eps=1e-05, momentum=0.1, affine=True, track_running_stats=True)
            (14): BatchNorm2d(240, eps=1e-05, momentum=0.1, affine=True, track_running_stats=True)
            (15): BatchNorm2d(240, eps=1e-05, momentum=0.1, affine=True, track_running_stats=True)
            (16): BatchNorm2d(240, eps=1e-05, momentum=0.1, affine=True, track_running_stats=True)
            (17): BatchNorm2d(240, eps=1e-05, momentum=0.1, affine=True, track_running_stats=True)
            (18): BatchNorm2d(240, eps=1e-05, momentum=0.1, affine=True, track_running_stats=True)
            (19): BatchNorm2d(240, eps=1e-05, momentum=0.1, affine=True, track_running_stats=True)
            (20): BatchNorm2d(240, eps=1e-05, momentum=0.1, affine=True, track_running_stats=True)
            (21): BatchNorm2d(240, eps=1e-05, momentum=0.1, affine=True, track_running_stats=True)
            (22): BatchNorm2d(240, eps=1e-05, momentum=0.1, affine=True, track_running_stats=True)
            (23): BatchNorm2d(240, eps=1e-05, momentum=0.1, affine=True, track_running_stats=True)
            (24): BatchNorm2d(240, eps=1e-05, momentum=0.1, affine=True, track_running_stats=True)
          )
        )
        (2): SiLU()
      )
      (transformer): Transformer(
        (layers): ModuleList(
          (0): ModuleList(
            (0): PreNorm(
              (norm): SWLayerNorm(
                (240,), eps=1e-05, elementwise_affine=True
                (ln): ModuleList(
                  (0): LayerNorm((240,), eps=1e-05, elementwise_affine=True)
                  (1): LayerNorm((240,), eps=1e-05, elementwise_affine=True)
                  (2): LayerNorm((240,), eps=1e-05, elementwise_affine=True)
                  (3): LayerNorm((240,), eps=1e-05, elementwise_affine=True)
                  (4): LayerNorm((240,), eps=1e-05, elementwise_affine=True)
                  (5): LayerNorm((240,), eps=1e-05, elementwise_affine=True)
                  (6): LayerNorm((240,), eps=1e-05, elementwise_affine=True)
                  (7): LayerNorm((240,), eps=1e-05, elementwise_affine=True)
                  (8): LayerNorm((240,), eps=1e-05, elementwise_affine=True)
                  (9): LayerNorm((240,), eps=1e-05, elementwise_affine=True)
                  (10): LayerNorm((240,), eps=1e-05, elementwise_affine=True)
                  (11): LayerNorm((240,), eps=1e-05, elementwise_affine=True)
                  (12): LayerNorm((240,), eps=1e-05, elementwise_affine=True)
                  (13): LayerNorm((240,), eps=1e-05, elementwise_affine=True)
                  (14): LayerNorm((240,), eps=1e-05, elementwise_affine=True)
                  (15): LayerNorm((240,), eps=1e-05, elementwise_affine=True)
                  (16): LayerNorm((240,), eps=1e-05, elementwise_affine=True)
                  (17): LayerNorm((240,), eps=1e-05, elementwise_affine=True)
                  (18): LayerNorm((240,), eps=1e-05, elementwise_affine=True)
                  (19): LayerNorm((240,), eps=1e-05, elementwise_affine=True)
                  (20): LayerNorm((240,), eps=1e-05, elementwise_affine=True)
                  (21): LayerNorm((240,), eps=1e-05, elementwise_affine=True)
                  (22): LayerNorm((240,), eps=1e-05, elementwise_affine=True)
                  (23): LayerNorm((240,), eps=1e-05, elementwise_affine=True)
                  (24): LayerNorm((240,), eps=1e-05, elementwise_affine=True)
                )
              )
              (fn): Attention(
                (attend): Softmax(dim=-1)
                (to_qkv): Linear(in_features=240, out_features=96, bias=False)
                (to_out): Sequential(
                  (0): Linear(in_features=32, out_features=240, bias=True)
                  (1): Dropout(p=0.0, inplace=False)
                )
              )
            )
            (1): PreNorm(
              (norm): SWLayerNorm(
                (240,), eps=1e-05, elementwise_affine=True
                (ln): ModuleList(
                  (0): LayerNorm((240,), eps=1e-05, elementwise_affine=True)
                  (1): LayerNorm((240,), eps=1e-05, elementwise_affine=True)
                  (2): LayerNorm((240,), eps=1e-05, elementwise_affine=True)
                  (3): LayerNorm((240,), eps=1e-05, elementwise_affine=True)
                  (4): LayerNorm((240,), eps=1e-05, elementwise_affine=True)
                  (5): LayerNorm((240,), eps=1e-05, elementwise_affine=True)
                  (6): LayerNorm((240,), eps=1e-05, elementwise_affine=True)
                  (7): LayerNorm((240,), eps=1e-05, elementwise_affine=True)
                  (8): LayerNorm((240,), eps=1e-05, elementwise_affine=True)
                  (9): LayerNorm((240,), eps=1e-05, elementwise_affine=True)
                  (10): LayerNorm((240,), eps=1e-05, elementwise_affine=True)
                  (11): LayerNorm((240,), eps=1e-05, elementwise_affine=True)
                  (12): LayerNorm((240,), eps=1e-05, elementwise_affine=True)
                  (13): LayerNorm((240,), eps=1e-05, elementwise_affine=True)
                  (14): LayerNorm((240,), eps=1e-05, elementwise_affine=True)
                  (15): LayerNorm((240,), eps=1e-05, elementwise_affine=True)
                  (16): LayerNorm((240,), eps=1e-05, elementwise_affine=True)
                  (17): LayerNorm((240,), eps=1e-05, elementwise_affine=True)
                  (18): LayerNorm((240,), eps=1e-05, elementwise_affine=True)
                  (19): LayerNorm((240,), eps=1e-05, elementwise_affine=True)
                  (20): LayerNorm((240,), eps=1e-05, elementwise_affine=True)
                  (21): LayerNorm((240,), eps=1e-05, elementwise_affine=True)
                  (22): LayerNorm((240,), eps=1e-05, elementwise_affine=True)
                  (23): LayerNorm((240,), eps=1e-05, elementwise_affine=True)
                  (24): LayerNorm((240,), eps=1e-05, elementwise_affine=True)
                )
              )
              (fn): FeedForward(
                (net): Sequential(
                  (0): Linear(in_features=240, out_features=960, bias=True)
                  (1): SiLU()
                  (2): Dropout(p=0.0, inplace=False)
                  (3): Linear(in_features=960, out_features=240, bias=True)
                  (4): Dropout(p=0.0, inplace=False)
                )
              )
            )
          )
          (1): ModuleList(
            (0): PreNorm(
              (norm): SWLayerNorm(
                (240,), eps=1e-05, elementwise_affine=True
                (ln): ModuleList(
                  (0): LayerNorm((240,), eps=1e-05, elementwise_affine=True)
                  (1): LayerNorm((240,), eps=1e-05, elementwise_affine=True)
                  (2): LayerNorm((240,), eps=1e-05, elementwise_affine=True)
                  (3): LayerNorm((240,), eps=1e-05, elementwise_affine=True)
                  (4): LayerNorm((240,), eps=1e-05, elementwise_affine=True)
                  (5): LayerNorm((240,), eps=1e-05, elementwise_affine=True)
                  (6): LayerNorm((240,), eps=1e-05, elementwise_affine=True)
                  (7): LayerNorm((240,), eps=1e-05, elementwise_affine=True)
                  (8): LayerNorm((240,), eps=1e-05, elementwise_affine=True)
                  (9): LayerNorm((240,), eps=1e-05, elementwise_affine=True)
                  (10): LayerNorm((240,), eps=1e-05, elementwise_affine=True)
                  (11): LayerNorm((240,), eps=1e-05, elementwise_affine=True)
                  (12): LayerNorm((240,), eps=1e-05, elementwise_affine=True)
                  (13): LayerNorm((240,), eps=1e-05, elementwise_affine=True)
                  (14): LayerNorm((240,), eps=1e-05, elementwise_affine=True)
                  (15): LayerNorm((240,), eps=1e-05, elementwise_affine=True)
                  (16): LayerNorm((240,), eps=1e-05, elementwise_affine=True)
                  (17): LayerNorm((240,), eps=1e-05, elementwise_affine=True)
                  (18): LayerNorm((240,), eps=1e-05, elementwise_affine=True)
                  (19): LayerNorm((240,), eps=1e-05, elementwise_affine=True)
                  (20): LayerNorm((240,), eps=1e-05, elementwise_affine=True)
                  (21): LayerNorm((240,), eps=1e-05, elementwise_affine=True)
                  (22): LayerNorm((240,), eps=1e-05, elementwise_affine=True)
                  (23): LayerNorm((240,), eps=1e-05, elementwise_affine=True)
                  (24): LayerNorm((240,), eps=1e-05, elementwise_affine=True)
                )
              )
              (fn): Attention(
                (attend): Softmax(dim=-1)
                (to_qkv): Linear(in_features=240, out_features=96, bias=False)
                (to_out): Sequential(
                  (0): Linear(in_features=32, out_features=240, bias=True)
                  (1): Dropout(p=0.0, inplace=False)
                )
              )
            )
            (1): PreNorm(
              (norm): SWLayerNorm(
                (240,), eps=1e-05, elementwise_affine=True
                (ln): ModuleList(
                  (0): LayerNorm((240,), eps=1e-05, elementwise_affine=True)
                  (1): LayerNorm((240,), eps=1e-05, elementwise_affine=True)
                  (2): LayerNorm((240,), eps=1e-05, elementwise_affine=True)
                  (3): LayerNorm((240,), eps=1e-05, elementwise_affine=True)
                  (4): LayerNorm((240,), eps=1e-05, elementwise_affine=True)
                  (5): LayerNorm((240,), eps=1e-05, elementwise_affine=True)
                  (6): LayerNorm((240,), eps=1e-05, elementwise_affine=True)
                  (7): LayerNorm((240,), eps=1e-05, elementwise_affine=True)
                  (8): LayerNorm((240,), eps=1e-05, elementwise_affine=True)
                  (9): LayerNorm((240,), eps=1e-05, elementwise_affine=True)
                  (10): LayerNorm((240,), eps=1e-05, elementwise_affine=True)
                  (11): LayerNorm((240,), eps=1e-05, elementwise_affine=True)
                  (12): LayerNorm((240,), eps=1e-05, elementwise_affine=True)
                  (13): LayerNorm((240,), eps=1e-05, elementwise_affine=True)
                  (14): LayerNorm((240,), eps=1e-05, elementwise_affine=True)
                  (15): LayerNorm((240,), eps=1e-05, elementwise_affine=True)
                  (16): LayerNorm((240,), eps=1e-05, elementwise_affine=True)
                  (17): LayerNorm((240,), eps=1e-05, elementwise_affine=True)
                  (18): LayerNorm((240,), eps=1e-05, elementwise_affine=True)
                  (19): LayerNorm((240,), eps=1e-05, elementwise_affine=True)
                  (20): LayerNorm((240,), eps=1e-05, elementwise_affine=True)
                  (21): LayerNorm((240,), eps=1e-05, elementwise_affine=True)
                  (22): LayerNorm((240,), eps=1e-05, elementwise_affine=True)
                  (23): LayerNorm((240,), eps=1e-05, elementwise_affine=True)
                  (24): LayerNorm((240,), eps=1e-05, elementwise_affine=True)
                )
              )
              (fn): FeedForward(
                (net): Sequential(
                  (0): Linear(in_features=240, out_features=960, bias=True)
                  (1): SiLU()
                  (2): Dropout(p=0.0, inplace=False)
                  (3): Linear(in_features=960, out_features=240, bias=True)
                  (4): Dropout(p=0.0, inplace=False)
                )
              )
            )
          )
          (2): ModuleList(
            (0): PreNorm(
              (norm): SWLayerNorm(
                (240,), eps=1e-05, elementwise_affine=True
                (ln): ModuleList(
                  (0): LayerNorm((240,), eps=1e-05, elementwise_affine=True)
                  (1): LayerNorm((240,), eps=1e-05, elementwise_affine=True)
                  (2): LayerNorm((240,), eps=1e-05, elementwise_affine=True)
                  (3): LayerNorm((240,), eps=1e-05, elementwise_affine=True)
                  (4): LayerNorm((240,), eps=1e-05, elementwise_affine=True)
                  (5): LayerNorm((240,), eps=1e-05, elementwise_affine=True)
                  (6): LayerNorm((240,), eps=1e-05, elementwise_affine=True)
                  (7): LayerNorm((240,), eps=1e-05, elementwise_affine=True)
                  (8): LayerNorm((240,), eps=1e-05, elementwise_affine=True)
                  (9): LayerNorm((240,), eps=1e-05, elementwise_affine=True)
                  (10): LayerNorm((240,), eps=1e-05, elementwise_affine=True)
                  (11): LayerNorm((240,), eps=1e-05, elementwise_affine=True)
                  (12): LayerNorm((240,), eps=1e-05, elementwise_affine=True)
                  (13): LayerNorm((240,), eps=1e-05, elementwise_affine=True)
                  (14): LayerNorm((240,), eps=1e-05, elementwise_affine=True)
                  (15): LayerNorm((240,), eps=1e-05, elementwise_affine=True)
                  (16): LayerNorm((240,), eps=1e-05, elementwise_affine=True)
                  (17): LayerNorm((240,), eps=1e-05, elementwise_affine=True)
                  (18): LayerNorm((240,), eps=1e-05, elementwise_affine=True)
                  (19): LayerNorm((240,), eps=1e-05, elementwise_affine=True)
                  (20): LayerNorm((240,), eps=1e-05, elementwise_affine=True)
                  (21): LayerNorm((240,), eps=1e-05, elementwise_affine=True)
                  (22): LayerNorm((240,), eps=1e-05, elementwise_affine=True)
                  (23): LayerNorm((240,), eps=1e-05, elementwise_affine=True)
                  (24): LayerNorm((240,), eps=1e-05, elementwise_affine=True)
                )
              )
              (fn): Attention(
                (attend): Softmax(dim=-1)
                (to_qkv): Linear(in_features=240, out_features=96, bias=False)
                (to_out): Sequential(
                  (0): Linear(in_features=32, out_features=240, bias=True)
                  (1): Dropout(p=0.0, inplace=False)
                )
              )
            )
            (1): PreNorm(
              (norm): SWLayerNorm(
                (240,), eps=1e-05, elementwise_affine=True
                (ln): ModuleList(
                  (0): LayerNorm((240,), eps=1e-05, elementwise_affine=True)
                  (1): LayerNorm((240,), eps=1e-05, elementwise_affine=True)
                  (2): LayerNorm((240,), eps=1e-05, elementwise_affine=True)
                  (3): LayerNorm((240,), eps=1e-05, elementwise_affine=True)
                  (4): LayerNorm((240,), eps=1e-05, elementwise_affine=True)
                  (5): LayerNorm((240,), eps=1e-05, elementwise_affine=True)
                  (6): LayerNorm((240,), eps=1e-05, elementwise_affine=True)
                  (7): LayerNorm((240,), eps=1e-05, elementwise_affine=True)
                  (8): LayerNorm((240,), eps=1e-05, elementwise_affine=True)
                  (9): LayerNorm((240,), eps=1e-05, elementwise_affine=True)
                  (10): LayerNorm((240,), eps=1e-05, elementwise_affine=True)
                  (11): LayerNorm((240,), eps=1e-05, elementwise_affine=True)
                  (12): LayerNorm((240,), eps=1e-05, elementwise_affine=True)
                  (13): LayerNorm((240,), eps=1e-05, elementwise_affine=True)
                  (14): LayerNorm((240,), eps=1e-05, elementwise_affine=True)
                  (15): LayerNorm((240,), eps=1e-05, elementwise_affine=True)
                  (16): LayerNorm((240,), eps=1e-05, elementwise_affine=True)
                  (17): LayerNorm((240,), eps=1e-05, elementwise_affine=True)
                  (18): LayerNorm((240,), eps=1e-05, elementwise_affine=True)
                  (19): LayerNorm((240,), eps=1e-05, elementwise_affine=True)
                  (20): LayerNorm((240,), eps=1e-05, elementwise_affine=True)
                  (21): LayerNorm((240,), eps=1e-05, elementwise_affine=True)
                  (22): LayerNorm((240,), eps=1e-05, elementwise_affine=True)
                  (23): LayerNorm((240,), eps=1e-05, elementwise_affine=True)
                  (24): LayerNorm((240,), eps=1e-05, elementwise_affine=True)
                )
              )
              (fn): FeedForward(
                (net): Sequential(
                  (0): Linear(in_features=240, out_features=960, bias=True)
                  (1): SiLU()
                  (2): Dropout(p=0.0, inplace=False)
                  (3): Linear(in_features=960, out_features=240, bias=True)
                  (4): Dropout(p=0.0, inplace=False)
                )
              )
            )
          )
        )
      )
      (conv3): Sequential(
        (0): Conv2d(240, 160, kernel_size=(1, 1), stride=(1, 1), bias=False)
        (1): SWBatchNorm2d(
          160, eps=1e-05, momentum=0.1, affine=True, track_running_stats=True
          (bn): ModuleList(
            (0): BatchNorm2d(160, eps=1e-05, momentum=0.1, affine=True, track_running_stats=True)
            (1): BatchNorm2d(160, eps=1e-05, momentum=0.1, affine=True, track_running_stats=True)
            (2): BatchNorm2d(160, eps=1e-05, momentum=0.1, affine=True, track_running_stats=True)
            (3): BatchNorm2d(160, eps=1e-05, momentum=0.1, affine=True, track_running_stats=True)
            (4): BatchNorm2d(160, eps=1e-05, momentum=0.1, affine=True, track_running_stats=True)
            (5): BatchNorm2d(160, eps=1e-05, momentum=0.1, affine=True, track_running_stats=True)
            (6): BatchNorm2d(160, eps=1e-05, momentum=0.1, affine=True, track_running_stats=True)
            (7): BatchNorm2d(160, eps=1e-05, momentum=0.1, affine=True, track_running_stats=True)
            (8): BatchNorm2d(160, eps=1e-05, momentum=0.1, affine=True, track_running_stats=True)
            (9): BatchNorm2d(160, eps=1e-05, momentum=0.1, affine=True, track_running_stats=True)
            (10): BatchNorm2d(160, eps=1e-05, momentum=0.1, affine=True, track_running_stats=True)
            (11): BatchNorm2d(160, eps=1e-05, momentum=0.1, affine=True, track_running_stats=True)
            (12): BatchNorm2d(160, eps=1e-05, momentum=0.1, affine=True, track_running_stats=True)
            (13): BatchNorm2d(160, eps=1e-05, momentum=0.1, affine=True, track_running_stats=True)
            (14): BatchNorm2d(160, eps=1e-05, momentum=0.1, affine=True, track_running_stats=True)
            (15): BatchNorm2d(160, eps=1e-05, momentum=0.1, affine=True, track_running_stats=True)
            (16): BatchNorm2d(160, eps=1e-05, momentum=0.1, affine=True, track_running_stats=True)
            (17): BatchNorm2d(160, eps=1e-05, momentum=0.1, affine=True, track_running_stats=True)
            (18): BatchNorm2d(160, eps=1e-05, momentum=0.1, affine=True, track_running_stats=True)
            (19): BatchNorm2d(160, eps=1e-05, momentum=0.1, affine=True, track_running_stats=True)
            (20): BatchNorm2d(160, eps=1e-05, momentum=0.1, affine=True, track_running_stats=True)
            (21): BatchNorm2d(160, eps=1e-05, momentum=0.1, affine=True, track_running_stats=True)
            (22): BatchNorm2d(160, eps=1e-05, momentum=0.1, affine=True, track_running_stats=True)
            (23): BatchNorm2d(160, eps=1e-05, momentum=0.1, affine=True, track_running_stats=True)
            (24): BatchNorm2d(160, eps=1e-05, momentum=0.1, affine=True, track_running_stats=True)
          )
        )
        (2): SiLU()
      )
      (conv4): Sequential(
        (0): Conv2d(320, 160, kernel_size=(3, 3), stride=(1, 1), padding=(1, 1), bias=False)
        (1): SWBatchNorm2d(
          160, eps=1e-05, momentum=0.1, affine=True, track_running_stats=True
          (bn): ModuleList(
            (0): BatchNorm2d(160, eps=1e-05, momentum=0.1, affine=True, track_running_stats=True)
            (1): BatchNorm2d(160, eps=1e-05, momentum=0.1, affine=True, track_running_stats=True)
            (2): BatchNorm2d(160, eps=1e-05, momentum=0.1, affine=True, track_running_stats=True)
            (3): BatchNorm2d(160, eps=1e-05, momentum=0.1, affine=True, track_running_stats=True)
            (4): BatchNorm2d(160, eps=1e-05, momentum=0.1, affine=True, track_running_stats=True)
            (5): BatchNorm2d(160, eps=1e-05, momentum=0.1, affine=True, track_running_stats=True)
            (6): BatchNorm2d(160, eps=1e-05, momentum=0.1, affine=True, track_running_stats=True)
            (7): BatchNorm2d(160, eps=1e-05, momentum=0.1, affine=True, track_running_stats=True)
            (8): BatchNorm2d(160, eps=1e-05, momentum=0.1, affine=True, track_running_stats=True)
            (9): BatchNorm2d(160, eps=1e-05, momentum=0.1, affine=True, track_running_stats=True)
            (10): BatchNorm2d(160, eps=1e-05, momentum=0.1, affine=True, track_running_stats=True)
            (11): BatchNorm2d(160, eps=1e-05, momentum=0.1, affine=True, track_running_stats=True)
            (12): BatchNorm2d(160, eps=1e-05, momentum=0.1, affine=True, track_running_stats=True)
            (13): BatchNorm2d(160, eps=1e-05, momentum=0.1, affine=True, track_running_stats=True)
            (14): BatchNorm2d(160, eps=1e-05, momentum=0.1, affine=True, track_running_stats=True)
            (15): BatchNorm2d(160, eps=1e-05, momentum=0.1, affine=True, track_running_stats=True)
            (16): BatchNorm2d(160, eps=1e-05, momentum=0.1, affine=True, track_running_stats=True)
            (17): BatchNorm2d(160, eps=1e-05, momentum=0.1, affine=True, track_running_stats=True)
            (18): BatchNorm2d(160, eps=1e-05, momentum=0.1, affine=True, track_running_stats=True)
            (19): BatchNorm2d(160, eps=1e-05, momentum=0.1, affine=True, track_running_stats=True)
            (20): BatchNorm2d(160, eps=1e-05, momentum=0.1, affine=True, track_running_stats=True)
            (21): BatchNorm2d(160, eps=1e-05, momentum=0.1, affine=True, track_running_stats=True)
            (22): BatchNorm2d(160, eps=1e-05, momentum=0.1, affine=True, track_running_stats=True)
            (23): BatchNorm2d(160, eps=1e-05, momentum=0.1, affine=True, track_running_stats=True)
            (24): BatchNorm2d(160, eps=1e-05, momentum=0.1, affine=True, track_running_stats=True)
          )
        )
        (2): SiLU()
      )
    )
  )
  (conv2): Sequential(
    (0): Conv2d(160, 640, kernel_size=(1, 1), stride=(1, 1), bias=False)
    (1): SWBatchNorm2d(
      640, eps=1e-05, momentum=0.1, affine=True, track_running_stats=True
      (bn): ModuleList(
        (0): BatchNorm2d(640, eps=1e-05, momentum=0.1, affine=True, track_running_stats=True)
        (1): BatchNorm2d(640, eps=1e-05, momentum=0.1, affine=True, track_running_stats=True)
        (2): BatchNorm2d(640, eps=1e-05, momentum=0.1, affine=True, track_running_stats=True)
        (3): BatchNorm2d(640, eps=1e-05, momentum=0.1, affine=True, track_running_stats=True)
        (4): BatchNorm2d(640, eps=1e-05, momentum=0.1, affine=True, track_running_stats=True)
        (5): BatchNorm2d(640, eps=1e-05, momentum=0.1, affine=True, track_running_stats=True)
        (6): BatchNorm2d(640, eps=1e-05, momentum=0.1, affine=True, track_running_stats=True)
        (7): BatchNorm2d(640, eps=1e-05, momentum=0.1, affine=True, track_running_stats=True)
        (8): BatchNorm2d(640, eps=1e-05, momentum=0.1, affine=True, track_running_stats=True)
        (9): BatchNorm2d(640, eps=1e-05, momentum=0.1, affine=True, track_running_stats=True)
        (10): BatchNorm2d(640, eps=1e-05, momentum=0.1, affine=True, track_running_stats=True)
        (11): BatchNorm2d(640, eps=1e-05, momentum=0.1, affine=True, track_running_stats=True)
        (12): BatchNorm2d(640, eps=1e-05, momentum=0.1, affine=True, track_running_stats=True)
        (13): BatchNorm2d(640, eps=1e-05, momentum=0.1, affine=True, track_running_stats=True)
        (14): BatchNorm2d(640, eps=1e-05, momentum=0.1, affine=True, track_running_stats=True)
        (15): BatchNorm2d(640, eps=1e-05, momentum=0.1, affine=True, track_running_stats=True)
        (16): BatchNorm2d(640, eps=1e-05, momentum=0.1, affine=True, track_running_stats=True)
        (17): BatchNorm2d(640, eps=1e-05, momentum=0.1, affine=True, track_running_stats=True)
        (18): BatchNorm2d(640, eps=1e-05, momentum=0.1, affine=True, track_running_stats=True)
        (19): BatchNorm2d(640, eps=1e-05, momentum=0.1, affine=True, track_running_stats=True)
        (20): BatchNorm2d(640, eps=1e-05, momentum=0.1, affine=True, track_running_stats=True)
        (21): BatchNorm2d(640, eps=1e-05, momentum=0.1, affine=True, track_running_stats=True)
        (22): BatchNorm2d(640, eps=1e-05, momentum=0.1, affine=True, track_running_stats=True)
        (23): BatchNorm2d(640, eps=1e-05, momentum=0.1, affine=True, track_running_stats=True)
        (24): BatchNorm2d(640, eps=1e-05, momentum=0.1, affine=True, track_running_stats=True)
      )
    )
    (2): SiLU()
  )
  (pool): AvgPool2d(kernel_size=8, stride=1, padding=0)
  (fc): Linear(in_features=640, out_features=196, bias=False)
)